model/best_dl.pth (torch, 24166 bytes, 31 tensors)

net.0.weight f4 [10, 6]
0	0xbdf7864a	-0.120861605
1	0x3eb4905b	0.35266384
2	0x3e8e4ce6	0.27793044
3	0x3ed30d5c	0.4122113
4	0x3edaac28	0.4270947
5	0x3d0a741c	0.033802137
6	0x3f1ddb98	0.616632
7	0x3cb572f3	0.022149539
8	0x3eb28553	0.34867343
9	0xbeaedd74	-0.3415333
10	0x3e1df48e	0.15425321
11	0x3d433d9f	0.04766619
12	0x3f755640	0.9583473
13	0x3df34a84	0.11879447
14	0x3e06b5f5	0.13155349
15	0xbd77d06e	-0.06050151
16	0x3e39a5d8	0.1812967
17	0xbcc47930	-0.023983568
18	0x3b4b117f	0.003098577
19	0xbed30ee2	-0.41222292
20	0xbe0cd6d6	-0.13753828
21	0x3e344e61	0.17608024
22	0xbe631a7e	-0.22178075
23	0xbc8424ed	-0.016130889
24	0xbec32201	-0.3811188
25	0xbdbf65fc	-0.09345624
26	0xbea36680	-0.3191414
27	0xbd6a9cca	-0.057278432
28	0xbe93c4ca	-0.28861076
29	0x3aa3f3e4	0.0012508598
30	0x3f168404	0.5879519
31	0xbf16d066	-0.5891174
32	0xbda39619	-0.07987613
33	0xbd1e00c6	-0.038574956
34	0xbde60962	-0.112322584
35	0x3b19fa9c	0.0023495322
36	0xbee8c81d	-0.45465174
37	0x3ef2f2b4	0.47450793
38	0xbd3ca5b7	-0.046056475
39	0x3d87a37b	0.06622978
40	0x3dd9c3b2	0.10633029
41	0x3ca8fe2f	0.020629017
42	0x3f278f4e	0.6545304
43	0x3e25100b	0.16119401
44	0x3e65af00	0.22430038
45	0xbdb45429	-0.08805115
46	0x3e1453e7	0.14485131
47	0xbc75f661	-0.015012355
48	0xbed0aa07	-0.4075472
49	0xbe920b56	-0.28524274
50	0xbf1cc891	-0.6124354
51	0x3c2db7ea	0.010602931
52	0xbe8c8cf6	-0.27451295
53	0x3d1220f6	0.035675965
54	0x3ee34a41	0.4439259
55	0x3f3ab36a	0.72930014
56	0xbe09b6dd	-0.13448663
57	0x3d86f18f	0.065890424
58	0xbc1859da	-0.009298766
59	0x3a81783f	0.0009877755

net.0.bias f4 [10]
0	0x3ae2e3bd	0.0017310303
1	0x39aa2a28	0.00032456336
2	0xb9a26130	-0.00030971458
3	0x3a20a0e5	0.0006127491
4	0xbb829895	-0.0039854744
5	0x39de51e3	0.0004240415
6	0xba386f9f	-0.0007035676
7	0x3981a8da	0.00024730602
8	0xba04f053	-0.00050712115
9	0xba7aa518	-0.0009561344

net.1.weight f4 [10]
0	0x3fce020c	1.6094375
1	0x3fb1d71f	1.3893775
2	0x3f911f14	1.1337609
3	0x3fef3f56	1.8691204
4	0x3f8d5fe0	1.1044884
5	0x3fdb48ec	1.7131629
6	0x4024cd98	2.5750484
7	0x3f9f7bc5	1.2459646
8	0x3fc5b4fc	1.5445857
9	0x3f87dbad	1.0613915

net.1.bias f4 [10]
0	0xbfb0f7ee	-1.3825662
1	0x3f241f0a	0.6410986
2	0x3edeabf7	0.43490574
3	0x3fe23105	1.767121
4	0x3f1a7e4b	0.6034896
5	0x3f8b9ee3	1.0907863
6	0xbfa3239b	-1.2745241
7	0x3f4990ac	0.78736377
8	0x3f3423b6	0.7036699
9	0x3ff22d76	1.8920124

net.1.running_mean f4 [10]
0	0xb8323f33	-4.2497366e-05
1	0x3947ad11	0.00019042591
2	0xb90c045e	-0.00013353067
3	0x394b1e2c	0.00019370829
4	0xba2daf45	-0.00066255435
5	0x393210be	0.0001698164
6	0x39187c55	0.00014542167
7	0xb9136d0e	-0.00014059638
8	0xb80d14cd	-3.3636392e-05
9	0x39bccea3	0.0003601211

net.1.running_var f4 [10]
0	0x3f4b6f05	0.7946628
1	0x3ee30403	0.44338998
2	0x3f586a54	0.84537244
3	0x3df7cfd6	0.121001884
4	0x3e7ba7b3	0.24575691
5	0x3f113c2d	0.56732446
6	0x3ec53932	0.385202
7	0x3ec27759	0.3798168
8	0x3ec64cb0	0.38730383
9	0x3f903b28	1.1268053

net.3.weight f4 [10, 10]
0	0xbd42487f	-0.04743242
1	0xbe89c0b4	-0.26904833
2	0xbe1b7317	-0.15180622
3	0xbd1ab3e0	-0.0377692
4	0xbebc534e	-0.36782306
5	0xbf2de5dd	-0.6792887
6	0xbdb83e31	-0.08996237
7	0xbdfc27ce	-0.1231228
8	0xbd00b6eb	-0.031424444
9	0xbf13e6ed	-0.5777424
10	0x3e4a4368	0.19752276
11	0x3bac9d89	0.005267803
12	0x3e8a358e	0.26993984
13	0xbe1f97a7	-0.15585195
14	0x3ee2c0b8	0.44287658
15	0xbea34ec3	-0.31896028
16	0xbe14294f	-0.14468883
17	0xbeaff62f	-0.3436751
18	0xbe0c747f	-0.13716315
19	0xbecd6120	-0.40113163
20	0x3e824b00	0.25447845
21	0x3d7a87d0	0.061164677
22	0x3e47c576	0.19508919
23	0xbd0fe0cc	-0.035126492
24	0x3f0271bd	0.509548
25	0xbda0d313	-0.07852759
26	0x3dc7001b	0.09716817
27	0xbe678249	-0.22608294
28	0xbe16c1b0	-0.14722323
29	0xbf138e2d	-0.5763882
30	0xbe2270b1	-0.15863301
31	0xbe50f8cd	-0.2040741
32	0x3e3f7571	0.18697144
33	0xbe127d77	-0.14305674
34	0xbeb539f4	-0.35395777
35	0xbe5dedd0	-0.2167275
36	0xbe8a48c1	-0.27008632
37	0x3d21cd00	0.039502144
38	0x3e403cab	0.18773143
39	0xbedee34f	-0.43532798
40	0xbcbab569	-0.022791581
41	0x3d0f5d51	0.035001103
42	0x3e339b13	0.17539625
43	0xbc0542a9	-0.008133569
44	0xbdee85a3	-0.11646583
45	0xbf036c86	-0.5133747
46	0xbe6b155e	-0.2295737
47	0xbe3cc5d1	-0.18434836
48	0x3e0f65a0	0.1400361
49	0xbf38eafb	-0.7223355
50	0x3d6a581f	0.057212945
51	0xbc13190c	-0.00897814
52	0x3e852743	0.26006517
53	0x3d960b08	0.07326323
54	0x3dd51a28	0.104053795
55	0xbf057157	-0.5212607
56	0xbe2d72f2	-0.1693838
57	0xbdc43a72	-0.0958146
58	0x3d61664e	0.055029206
59	0xbf1d9d16	-0.6156782
60	0x3b8ebc17	0.004355918
61	0x3d016a65	0.031595606
62	0xbe68f31c	-0.22748989
63	0x3dd4c4e3	0.10389116
64	0xbc48369b	-0.01222005
65	0xbebaa433	-0.364534
66	0xbea87cf2	-0.32907826
67	0x3ca850d5	0.020546356
68	0x3c220c7a	0.00989067
69	0x3f35ea74	0.7106087
70	0xbe07abc1	-0.13249113
71	0xbe5a5b42	-0.21323875
72	0x3e8bbbf9	0.2729185
73	0xbe4719e6	-0.19443473
74	0xbe881af7	-0.26583073
75	0xbd6ef1a1	-0.058335904
76	0xbe40fc98	-0.18846357
77	0x3b1fb3bc	0.0024368605
78	0x3e3afed2	0.18261269
79	0xbf24eb2e	-0.64421356
80	0xbd40ab28	-0.047038227
81	0xbd4244a4	-0.047428742
82	0x3e2a06f7	0.1660422
83	0xbdeb8296	-0.11499517
84	0xbc27af88	-0.010234721
85	0xbed27d35	-0.4111115
86	0xbdb2326d	-0.08701024
87	0xbdb26a6c	-0.087117046
88	0x3df39427	0.11893492
89	0xbf383fad	-0.7197216
90	0x3d74908b	0.05970816
91	0x3e0744e3	0.13209872
92	0xbee65e56	-0.44993848
93	0x3d46d18f	0.048539694
94	0x3e07e7c2	0.13272002
95	0x3ec1cb8e	0.37850612
96	0x3e122d01	0.1427498
97	0x3ee421a7	0.44556925
98	0xbcdaba7a	-0.026700247
99	0x3f5457db	0.82946557

net.3.bias f4 [10]
0	0x389d0ef6	7.48913e-05
1	0x3b2c367c	0.0026277592
2	0x3aad7e35	0.0013236465
3	0xb7cfa6b1	-2.4753945e-05
4	0xbada1753	-0.0016639031
5	0xb780d926	-1.5359907e-05
6	0x3a7745a8	0.0009432682
7	0xbb3161d6	-0.0027066371
8	0xb971a313	-0.00023044301
9	0x3a0cb59f	0.000536764

net.4.weight f4 [10]
0	0x403964f3	2.8967865
1	0x4054f798	3.327612
2	0x403f19d2	2.985951
3	0x40124f6b	2.2860973
4	0x3fc85030	1.5649471
5	0x40151c27	2.3298433
6	0x4054dc11	3.3259318
7	0x4022dacf	2.544605
8	0x401a26d6	2.4086204
9	0x3febc1c0	1.8418503

net.4.bias f4 [10]
0	0xbfa79c6c	-1.3094611
1	0xbffc4f3a	-1.9711678
2	0xbfabfd3c	-1.3436656
3	0x4012903d	2.2900536
4	0xbf7a4aac	-0.9777019
5	0xbfed64b5	-1.8546358
6	0xbf28e6f2	-0.65977395
7	0x3ff45f83	1.9091648
8	0xc00962d2	-2.1466565
9	0x3feac867	1.8342408

net.4.running_mean f4 [10]
0	0xbf875ccc	-1.0575194
1	0xbf1b38b4	-0.606334
2	0xbf24e6a1	-0.6441441
3	0xbedb28c4	-0.4280454
4	0xbf46a8b5	-0.77601177
5	0xbf212a02	-0.62954724
6	0x3f1eee1d	0.6208208
7	0xbf166643	-0.5874979
8	0xbf4ede1a	-0.8080765
9	0x3f7b3067	0.9812073

net.4.running_var f4 [10]
0	0x3eaffa6a	0.34370738
1	0x3ddc5bef	0.107597224
2	0x3dabdac5	0.08391336
3	0x3c83e734	0.016101457
4	0x3cdc7d5b	0.026915243
5	0x3d097219	0.033556078
6	0x3c2849b5	0.010271479
7	0x3c7b01ae	0.015320225
8	0x3d63a1fe	0.05557441
9	0x3d21b1d4	0.03947623

net.6.weight f4 [1, 10]
0	0xbf4d8721	-0.80284315
1	0x4017be22	2.3709798
2	0x3f92b8c0	1.1462631
3	0x3fa17245	1.2612997
4	0x3f7eb607	0.994965
5	0x3fe20ef5	1.7660815
6	0x3e980b37	0.29696056
7	0xbf7fe59e	-0.99959743
8	0xc038fa72	-2.890286
9	0x4027ec6b	2.6238048

exp_avg f4 [10, 6]
0	0x3b3c8c4e	0.0028770152
1	0xbb1f4965	-0.002430522
2	0x3bfa7f6a	0.0076445835
3	0xbbfea04a	-0.007770573
4	0x3bb48888	0.00550944
5	0xbb9de3fa	-0.0048184367
6	0x3ad4f359	0.001624684
7	0x3c6de067	0.014518834
8	0x3c4c4cb0	0.012469456
9	0x3cfee4b7	0.03111492
10	0x3cf78f1d	0.030219609
11	0xbac8df6e	-0.0015325376
12	0x3b44292f	0.0029931774
13	0xbbb4cd78	-0.005517658
14	0xbbcf1417	-0.0063195336
15	0xbbcb8c37	-0.0062117833
16	0xbc1e6ffc	-0.009670254
17	0x3b96e6a8	0.004605133
18	0xbb379e08	-0.0028017778
19	0xbc19e9fb	-0.009394164
20	0x3c56ddab	0.013114373
21	0x3ad3dd98	0.0016164063
22	0x3c3689a4	0.0111412145
23	0x3b724135	0.0036965136
24	0xbd17ba58	-0.037042946
25	0x3c12ec4c	0.00896747
26	0x3caa0b1c	0.02075725
27	0x3bf5d0c8	0.0075016953
28	0x3cbb5ac2	0.022870425
29	0xbc86e6f6	-0.016467553
30	0x3bb6c341	0.0055774753
31	0x3c56329f	0.013073592
32	0xbc9558db	-0.018230846
33	0xbc2b5490	-0.010457173
34	0xbc9d9d2f	-0.01923999
35	0xbc4d62ca	-0.01253576
36	0x3aed3301	0.0018096865
37	0x3bb04da1	0.005380348
38	0xbc3b2012	-0.01142122
39	0xbc2231df	-0.0098995855
40	0xbc82cfa2	-0.015968148
41	0xbbe5e60e	-0.00701595
42	0xbb04aeb1	-0.0020245726
43	0x3bde9904	0.006793143
44	0xb7b07071	-2.1033195e-05
45	0xbaf2bca9	-0.001851936
46	0xba140eb0	-0.00056479406
47	0xbbefe967	-0.007321525
48	0x3c17eaa3	0.00927225
49	0x3a572f15	0.0008208615
50	0xbabc19a3	-0.0014350902
51	0xbb95050f	-0.004547722
52	0xbc3ac02e	-0.011398358
53	0xbb01b978	-0.0019794386
54	0xbab363ab	-0.001368632
55	0x3b0bd48c	0.0021336405
56	0x3c009bbe	0.007849632
57	0x3ad9952c	0.0016600243
58	0x3c49c559	0.012315118
59	0xbafb0ed4	-0.0019154199

exp_avg_sq f4 [10, 6]
0	0x3c80ea86	0.01573683
1	0x3ce1a407	0.027544035
2	0x3ca708c3	0.02038992
3	0x3b6b296b	0.0035882841
4	0x3b74d987	0.0037361102
5	0x3c5e1ef8	0.013557188
6	0x3c5ae8cd	0.013361168
7	0x3d0f45d9	0.03497872
8	0x3c9be327	0.019029213
9	0x3c8241f2	0.015900586
10	0x3c41f9fe	0.011839388
11	0x3c7a6900	0.015283823
12	0x38afbb6a	8.379559e-05
13	0x3bc7f6be	0.006102412
14	0x3b76db21	0.0037667232
15	0x3b39d696	0.0028356663
16	0x3a5dcb4b	0.0008460774
17	0x3afdf410	0.0019375104
18	0x3b28873a	0.0025715367
19	0x3be6e2fb	0.007046101
20	0x3c2e64f4	0.010644186
21	0x3b3eae7b	0.0029095698
22	0x3b5b6872	0.0033479002
23	0x3a6d6fba	0.0009057481
24	0x3e0715eb	0.13191955
25	0x3e927ca0	0.28610706
26	0x3e758d4b	0.2397968
27	0x3d705b4e	0.058680825
28	0x3cd6421d	0.026154572
29	0x3ddb596c	0.10710415
30	0x3a5770df	0.0008218418
31	0x3b85a674	0.0040786806
32	0x3bf984a1	0.0076146876
33	0x3bdbaee8	0.0067042
34	0x3c6b6052	0.014366226
35	0x3c041d43	0.008063617
36	0x3baaabb1	0.0052084555
37	0x3c107488	0.008816846
38	0x3bf842ce	0.007576323
39	0x3b46c907	0.0030332224
40	0x3c60eb04	0.013727907
41	0x3c2918ce	0.010320855
42	0x382e70f1	4.1590018e-05
43	0x3b5dd5fd	0.003384947
44	0x3aff7fea	0.0019493077
45	0x3b878b2d	0.004136464
46	0x3a5adf6e	0.00083493337
47	0x3a6d7b19	0.00090591755
48	0x3c7962d8	0.01522132
49	0x3cbdfc77	0.023191674
50	0x3c96f104	0.018425472
51	0x3b983e40	0.0046460927
52	0x3b3d4484	0.002887995
53	0x3c0ce6fe	0.008599995
54	0x3ad58a84	0.0016291891
55	0x3ad4507d	0.0016198304
56	0x3bf8fc14	0.0075984094
57	0x3a525e3d	0.0008024907
58	0x3b96520d	0.004587418
59	0x399b9184	0.0002967232

exp_avg f4 [10]
0	0xaf9638ba	-2.7325148e-10
1	0xb0622f8e	-8.22859e-10
2	0xb023a659	-5.953545e-10
3	0x30ccab7e	1.4891695e-09
4	0x30e5d290	1.6721788e-09
5	0xad1860ba	-8.661677e-12
6	0x31442d9f	2.8547686e-09
7	0x2f4195ec	1.760651e-10
8	0x30142e58	5.3907945e-10
9	0x31968f50	4.3818673e-09

exp_avg_sq f4 [10]
0	0x24c7a050	8.657407e-17
1	0x24e2473d	9.813256e-17
2	0x246d0337	5.1393906e-17
3	0x23fdb540	2.7507077e-17
4	0x261c9728	5.432823e-16
5	0x25261d99	1.4408233e-16
6	0x24fd220e	1.0977895e-16
7	0x24b3712d	7.78206e-17
8	0x24bedf41	8.277757e-17
9	0x257ae086	2.1760115e-16

exp_avg f4 [10]
0	0x3c12ea3e	0.0089669805
1	0x3b93f9eb	0.0045158765
2	0x39f694a0	0.0004703151
3	0xba6f789c	-0.00091350987
4	0xbcc1bc35	-0.023649314
5	0xbadb6523	-0.0016738515
6	0x3a2187b6	0.0006161885
7	0xba8166ba	-0.0009872534
8	0x3bb9bc3a	0.0056681903
9	0xbc1b8b15	-0.009493609

exp_avg_sq f4 [10]
0	0x3a8d3c07	0.0010775336
1	0x39794b4e	0.00023774544
2	0x392488a7	0.00015691166
3	0x384c0447	4.8641374e-05
4	0x3bfced59	0.0077187237
5	0x38607e23	5.3523236e-05
6	0x3821a82f	3.8542024e-05
7	0x37c52750	2.3502536e-05
8	0x39bcf393	0.0003603963
9	0x3d0b53dc	0.03401552

exp_avg f4 [10]
0	0x3be8c7eb	0.00710391
1	0x3a26d17d	0.00063636136
2	0xb98ecb68	-0.000272359
3	0x398dfc76	0.00027081714
4	0x3cc2784a	0.023738999
5	0xb9712d84	-0.00023000507
6	0x398d5d83	0.00026963287
7	0x3a6194ab	0.0008605222
8	0xbbd72ea6	-0.00656684
9	0x3b8cb942	0.0042945454

exp_avg_sq f4 [10]
0	0x3aaaa482	0.0013018998
1	0x388dc06a	6.759244e-05
2	0x37ef2982	2.8510349e-05
3	0x36bbe8db	5.6001422e-06
4	0x3c0683f7	0.008210174
5	0x3933539b	0.00017101916
6	0x391536c0	0.00014230143
7	0x381b9adc	3.7099104e-05
8	0x3a0c3224	0.00053480477
9	0x3c853610	0.01626113

exp_avg f4 [10, 10]
0	0xbb891a7a	-0.0041840645
1	0xbbc41319	-0.005983722
2	0xbb8dcb8d	-0.0043272437
3	0x3b684291	0.0035440067
4	0x3ba8179f	0.005129769
5	0x3a9e1315	0.001206013
6	0xb8301a90	-4.1986408e-05
7	0xbbc27b96	-0.0059351427
8	0x3bf7f55c	0.007567091
9	0x39dd7b6d	0.00042244364
10	0x3d36bccf	0.044613656
11	0x3d371ea1	0.044706944
12	0x3d1a5663	0.03768004
13	0xbd14505b	-0.036209445
14	0xbd41cf01	-0.047316555
15	0xbc1943af	-0.009354516
16	0x3adbbe42	0.0016765075
17	0x3d45034c	0.048098847
18	0xbd6bcc6a	-0.05756799
19	0xbad137a9	-0.0015962023
20	0x3cd77aa0	0.02630359
21	0x3cb12f26	0.021628927
22	0x3ca3285a	0.019916702
23	0xbcb7a000	-0.022415161
24	0xbce3a2dc	-0.027787618
25	0xbc154f65	-0.009113167
26	0x3b9cf754	0.004790226
27	0x3ccd215a	0.025040317
28	0xbd08b53f	-0.033375975
29	0xba058c96	-0.00050944963
30	0x3c800a3a	0.015629876
31	0x3b8a5656	0.004221718
32	0xba1ee59c	-0.0006061436
33	0xbc146285	-0.009056692
34	0xbc1626c8	-0.00916452
35	0xbc55662a	-0.013024846
36	0x3c23955b	0.00998434
37	0x3b8b5943	0.004252584
38	0xbc728cd8	-0.014804088
39	0xbb20face	-0.0024563554
40	0x3c86541b	0.016397526
41	0x3c5d4021	0.013504059
42	0x3c7c1c9a	0.0153876785
43	0xbc856d5a	-0.016287494
44	0xbc947018	-0.018119857
45	0xbb8a1e09	-0.0042150063
46	0x3b1684db	0.0022967372
47	0x3c9dafe3	0.019248908
48	0xbcb3d71c	-0.021953158
49	0x3a45d760	0.0007547047
50	0x3ce695f7	0.02814768
51	0x3cd235ee	0.025660481
52	0x3c9426f9	0.01808499
53	0xbcae21b8	-0.021256313
54	0xbd0491bb	-0.032365542
55	0x3a871cab	0.0010308226
56	0xbc04abb0	-0.008097574
57	0x3cc7ebbf	0.024404405
58	0xbd258af5	-0.040415723
59	0xbb3848cd	-0.0028119565
60	0x3c1b0e64	0.00946388
61	0x3bb2c426	0.0054555116
62	0xba5185e0	-0.0007992666
63	0xbb90d44d	-0.0044198395
64	0xbc0e4f8b	-0.008685957
65	0xbb23fae3	-0.0025021366
66	0xbb31d431	-0.0027134533
67	0x3b1500cd	0.0022736073
68	0xbc4b51e8	-0.012409665
69	0xbb3a3697	-0.0028413886
70	0xbcccdab1	-0.025006624
71	0xbc14b59e	-0.009076504
72	0xba14fd60	-0.0005683508
73	0x3c48a901	0.012247325
74	0x3cbc48a0	0.022983849
75	0x3c644b70	0.013934001
76	0xbbca56c1	-0.0061748927
77	0xbc07f0a8	-0.008297123
78	0x3d003af2	0.031306215
79	0x3ba3b7fc	0.004996298
80	0xbd302c3e	-0.043010943
81	0xbd18077b	-0.03711651
82	0xbcfc05b7	-0.030764444
83	0x3d1e17f1	0.03859705
84	0x3d3a9223	0.045549523
85	0x3c064e56	0.008197388
86	0x3ae768a1	0.0017655083
87	0xbd1af3f0	-0.037830293
88	0x3d63b3ba	0.055591322
89	0x3ade9402	0.0016981366
90	0x3d679347	0.05653694
91	0x3d2345b1	0.039861385
92	0x3d1b2516	0.037877165
93	0xbd4a1fc7	-0.04934671
94	0xbd5e68c9	-0.05429915
95	0xbcc6427c	-0.024201624
96	0x3c958343	0.018251067
97	0x3d4b95e8	0.04970351
98	0xbd858ba1	-0.06520773
99	0xba6d2178	-0.000904582

exp_avg_sq f4 [10, 10]
0	0x3a456167	0.00075294677
1	0x3a2df30c	0.0006635643
2	0x3ac50894	0.0015032464
3	0x3a9879be	0.0011632962
4	0x3a5930ba	0.0008285154
5	0x39ca8478	0.0003862714
6	0x3a865edf	0.0010251662
7	0x3abd2721	0.0014431217
8	0x3a80f674	0.0009839074
9	0x3931b50f	0.00016947485
10	0x3d370cfa	0.04469011
11	0x3cd49d2c	0.025953852
12	0x3d95a3f7	0.073066644
13	0x3d88423f	0.066532604
14	0x3d153aab	0.036432903
15	0x3c660e84	0.014041547
16	0x3d07cf07	0.03315642
17	0x3d956cc3	0.07296135
18	0x3d3a4794	0.04547842
19	0x3bdfe75a	0.006832999
20	0x3c65512e	0.0139964055
21	0x3bc59447	0.006029639
22	0x3c759516	0.014989158
23	0x3c89ce53	0.016822016
24	0x3c47642e	0.012169881
25	0x3bc0e9e1	0.0058872555
26	0x3c4242ac	0.011856716
27	0x3c7e878a	0.015535245
28	0x3c7ef87e	0.015562175
29	0x3aa3c034	0.0012493194
30	0x3babc426	0.0052418886
31	0x3aeb2802	0.0017941
32	0x3babd0fe	0.0052434197
33	0x3ba5e538	0.0050627254
34	0x3b46452d	0.0030253634
35	0x3b765771	0.003758874
36	0x3bedabce	0.0072531467
37	0x3b3de24d	0.0028973997
38	0x3bfa0ea5	0.0076311403
39	0x3b17cf98	0.0023164507
40	0x3c12d69f	0.0089623025
41	0x3b3f1893	0.0029158934
42	0x3be5013d	0.006988673
43	0x3c3f041f	0.011658697
44	0x3be66423	0.00703098
45	0x3b9d9f65	0.004810261
46	0x3bd93126	0.0066281734
47	0x3c0c9c51	0.008582191
48	0x3c1b0323	0.009461197
49	0x39c29c23	0.00037118894
50	0x3cc8b2e4	0.024499364
51	0x3c15ddf5	0.009147157
52	0x3cf5f77f	0.030025242
53	0x3d2b50c7	0.041825082
54	0x3c9b5788	0.018962637
55	0x3c40ab02	0.011759521
56	0x3cdeecc8	0.027212515
57	0x3ccd714f	0.025078444
58	0x3cd3b41f	0.025842724
59	0x3bb2358c	0.005438512
60	0x3a80c0f5	0.0009823131
61	0x39e8d709	0.00044410702
62	0x3b0d5197	0.0021563524
63	0x3a9904f8	0.0011674454
64	0x3a8d8d0c	0.0010799482
65	0x39752e91	0.00023382368
66	0x3a2ee248	0.0006671292
67	0x3a86bc32	0.0010279475
68	0x3b3defff	0.002898216
69	0x3a40d4af	0.0007355911
70	0x3c37e0a8	0.011222996
71	0x3c18a38b	0.009316335
72	0x3c11c89d	0.008897928
73	0x3c59acda	0.01328584
74	0x3c3d902e	0.01157002
75	0x3c11c6f5	0.008897533
76	0x3cae5d75	0.021284798
77	0x3b699f85	0.003564806
78	0x3cd8f322	0.026483122
79	0x3bd7d40d	0.0065865577
80	0x3d46da4e	0.048548035
81	0x3c916bee	0.01775166
82	0x3d954034	0.072876364
83	0x3da798d5	0.08183447
84	0x3d13201e	0.0359193
85	0x3c7c55a6	0.01540128
86	0x3d40d410	0.04707724
87	0x3d6ff20b	0.05858044
88	0x3d2c2afe	0.042033188
89	0x3c35a7ae	0.011087341
90	0x3daeeac4	0.08540872
91	0x3cc0fe95	0.023558894
92	0x3d8c6126	0.06854467
93	0x3df8cce5	0.121484555
94	0x3d606578	0.05478427
95	0x3d38737f	0.04503202
96	0x3da4f06f	0.080536716
97	0x3d8fd26a	0.07022555
98	0x3d83eab5	0.06441251
99	0x3c06893d	0.008211431

exp_avg f4 [10]
0	0xaf7a2575	-2.2750675e-10
1	0xb1f0bf6d	-7.006682e-09
2	0xb11eea80	-2.3125324e-09
3	0x3104dc84	1.9333877e-09
4	0x30a9b0c9	1.2346614e-09
5	0xb0a50618	-1.2007062e-09
6	0xb105918d	-1.9436783e-09
7	0x32064a7d	7.816763e-09
8	0xb204d5e7	-7.732047e-09
9	0xb048121a	-7.27853e-10

exp_avg_sq f4 [10]
0	0x2458c693	4.7005733e-17
1	0x26a68da8	1.155696e-15
2	0x2598abe0	2.6484264e-16
3	0x26ab335d	1.1879431e-15
4	0x25ba9993	3.2369923e-16
5	0x26e25ad2	1.5706517e-15
6	0x2545e812	1.7165655e-16
7	0x280d4c66	7.843639e-15
8	0x26f5b3cd	1.7049025e-15
9	0x27454ab2	2.7379734e-15

exp_avg f4 [10]
0	0x390f62cf	0.00013674352
1	0xba716cc8	-0.000920963
2	0xb9b43e53	-0.0003437871
3	0x3ac8dcef	0.0015324632
4	0x39da1a14	0.0004159963
5	0x3a46ac9b	0.0007578821
6	0x36d5bd4b	6.3699313e-06
7	0x3972d595	0.00023158484
8	0xb8ed3caa	-0.0001131234
9	0x38e2a0e4	0.00010806488

exp_avg_sq f4 [10]
0	0x37a399b7	1.9502693e-05
1	0x3956ab5f	0.00020472471
2	0x37b7e215	2.1920578e-05
3	0x3859487c	5.1804338e-05
4	0x379fda52	1.905594e-05
5	0x389bdd08	7.432146e-05
6	0x3426ab1f	1.5522208e-07
7	0x384234ed	4.6302495e-05
8	0x3951f5d9	0.00020023379
9	0x39b24e91	0.00034009342

exp_avg f4 [10]
0	0x39f21e3b	0.0004618036
1	0xbaeed1ff	-0.0018220543
2	0xba976fa6	-0.001155366
3	0xbaa634bb	-0.001268051
4	0xb9fb00cb	-0.00047875041
5	0x39cba208	0.000388399
6	0xb883487f	-6.26007e-05
7	0xb92001c2	-0.00015259444
8	0x3a153a95	0.00056926283
9	0xb8be3fa2	-9.0717585e-05

exp_avg_sq f4 [10]
0	0x38ada11b	8.279291e-05
1	0x3a323a3d	0.00067988393
2	0x38d5c1a8	0.00010192703
3	0x38ab3a92	8.164825e-05
4	0x380dc62c	3.380158e-05
5	0x39137cfd	0.00014065574
6	0x36840a79	3.9351257e-06
7	0x38ebaca1	0.00011237828
8	0x39e399f6	0.00043411524
9	0x39faa798	0.00047808583

exp_avg f4 [1, 10]
0	0x3b1620e3	0.0022907786
1	0x3b18393a	0.002322747
2	0x3abbd9f9	0.0014331929
3	0x3b366256	0.002782961
4	0x3b368932	0.002785277
5	0x3b47f242	0.0030509387
6	0xbb362ef3	-0.002779898
7	0x3a88e8aa	0.0010445316
8	0x3b183809	0.002322676
9	0xbaac3c84	-0.0013140594

exp_avg_sq f4 [1, 10]
0	0x38d01c92	9.9235345e-05
1	0x38f5949f	0.00011710193
2	0x379c69fe	1.8646006e-05
3	0x38f387bb	0.00011612425
4	0x391a5282	0.00014717321
5	0x392e5f37	0.00016629403
6	0x398f95fc	0.00027386833
7	0x3806c3de	3.2130505e-05
8	0x39a2ac15	0.0003102726
9	0x38a09f55	7.6590724e-05
