model/best_dw.pth (torch, 24166 bytes, 31 tensors)

net.0.weight f4 [10, 6]
0	0xbf2a4b23	-0.665209
1	0xbc930ae2	-0.017949525
2	0x3de220fa	0.11041446
3	0x3ed4e1e1	0.41578582
4	0xba42b1cd	-0.0007427007
5	0x3ca1bf30	0.019744486
6	0x3f2a0764	0.6641753
7	0x3d2af40c	0.041736647
8	0x3e84b55d	0.2591962
9	0xbe948a99	-0.29011992
10	0x3e7e0ae4	0.24808842
11	0x3d5c8024	0.053833142
12	0x3f20566d	0.62631875
13	0xbd2508ae	-0.04029148
14	0x3e4854d5	0.19563611
15	0xbe13285f	-0.14370869
16	0x3e65c424	0.22438103
17	0x3d3ace8d	0.04560714
18	0xbf15a1dd	-0.5845011
19	0xbd14dd37	-0.03634378
20	0xbe1f6c0a	-0.15568557
21	0x3e2ef6ea	0.17086378
22	0xbe0caece	-0.13738558
23	0x3e393803	0.18087773
24	0xbf36e4c3	-0.7144281
25	0xbe1c8288	-0.15284169
26	0x3eab8d33	0.33506164
27	0x3e002cc8	0.12517083
28	0x3d9301a0	0.07178044
29	0xbdb0f7d1	-0.08641017
30	0x3f095629	0.53647095
31	0xbf03baf4	-0.5145714
32	0xbddb3381	-0.10703183
33	0x3b1beaef	0.0023791154
34	0xbdbded93	-0.09273829
35	0x3cd42434	0.02589617
36	0x3b02d775	0.0019964848
37	0x3f072f9b	0.52807015
38	0x3e085236	0.13312611
39	0xbea635b2	-0.3246284
40	0xbb1688cf	-0.0022969728
41	0xbdbf40ed	-0.093385555
42	0x3f602b13	0.87565726
43	0x3f0048c2	0.5011102
44	0x3c6de5d8	0.014520131
45	0x3d69cff1	0.057083074
46	0xbd8d3d47	-0.06896453
47	0x3cc71331	0.024301143
48	0xbf38bd65	-0.72163993
49	0xbe2fee7d	-0.1718082
50	0xbeafc4a0	-0.343297
51	0xbe332161	-0.17493202
52	0xbd78d5b8	-0.060750693
53	0x3ec040a7	0.37549326
54	0x3f1223dd	0.57085973
55	0x3e406155	0.18787129
56	0xbb35ece0	-0.0027759597
57	0x3c42c59c	0.011887934
58	0xbd794861	-0.06086004
59	0xbefd4d6d	-0.49473134

net.0.bias f4 [10]
0	0xba809f76	-0.0009813148
1	0xba952728	-0.0011379467
2	0xbabcf76e	-0.0014417002
3	0x3ae24d5a	0.0017265484
4	0x3a029137	0.0004980745
5	0xba932442	-0.0011226016
6	0xb9b62fe6	-0.00034749432
7	0xb90eea98	-0.00013629568
8	0xbad437c6	-0.0016190938
9	0xba54822f	-0.0008106557

net.1.weight f4 [10]
0	0x40168aad	2.352214
1	0x404051c9	3.0049918
2	0x400d2f89	2.2060263
3	0x40020c8d	2.032016
4	0x3fd97f7f	1.6992034
5	0x40151d97	2.329931
6	0x400a3578	2.1595135
7	0x3fad911b	1.3559908
8	0x400f330f	2.2374914
9	0x40397058	2.897482

net.1.bias f4 [10]
0	0xc010855e	-2.25814
1	0x3f75e49b	0.9605195
2	0x3ed868e9	0.4226754
3	0xbf1a883e	-0.6036414
4	0xbf69a168	-0.9126191
5	0x3f536bb1	0.825862
6	0xbe23bc90	-0.159899
7	0x3fec93b6	1.8482578
8	0xbfb60e2c	-1.4223075
9	0x3e804027	0.25048944

net.1.running_mean f4 [10]
0	0x39f74094	0.00047159626
1	0x379d5220	1.87541e-05
2	0xb9f7e0a4	-0.00047278882
3	0x39fac370	0.00047829328
4	0xb7897fdc	-1.6391212e-05
5	0x38e6d22a	0.00011006401
6	0xb81f003f	-3.7908783e-05
7	0x3971117f	0.00022990069
8	0xb97f342d	-0.00024338132
9	0x370a7511	8.252698e-06

net.1.running_var f4 [10]
0	0x3f3033a0	0.68828773
1	0x3ee0b718	0.4388969
2	0x3eb9b586	0.36271304
3	0x3eb83559	0.359782
4	0x3f7762f5	0.9663537
5	0x3edd0bc3	0.43173036
6	0x3e9118db	0.28339276
7	0x3fa272e6	1.2691314
8	0x3f2700f4	0.6523583
9	0x3f5b88be	0.85755527

net.3.weight f4 [10, 10]
0	0x3ecd0a11	0.40046743
1	0xbeb22b12	-0.34798485
2	0x3ee6f0b3	0.45105514
3	0xbe4acc88	-0.19804585
4	0xbe7ffcc1	-0.24998762
5	0xbe576a2d	-0.21036597
6	0x3d106715	0.035254557
7	0xbec2eb61	-0.38070205
8	0x3e0f0d15	0.13969834
9	0xbd9a661b	-0.07539006
10	0xbeccc479	-0.39993647
11	0x3e630e41	0.22173406
12	0xbec97f31	-0.39354852
13	0x3e127c5a	0.14305249
14	0x3e8b0747	0.2715399
15	0xbe06385e	-0.1310744
16	0x3c8a36ce	0.016871836
17	0x3e1970b4	0.14984399
18	0x3db8938b	0.090125166
19	0x3edb18b6	0.4279229
20	0x3ebd2321	0.36940864
21	0x3e194670	0.14968276
22	0xbdde9828	-0.10868865
23	0x3e4c62b3	0.19959526
24	0xbcaece8c	-0.021338724
25	0xbdf2e1c0	-0.11859465
26	0x3e834687	0.25639746
27	0x3ea6e88f	0.32599303
28	0xbe0b4b87	-0.1360303
29	0xbf2abafd	-0.6669157
30	0xbdd9f1ce	-0.10641824
31	0xbd9af9b5	-0.07567159
32	0x3d83e207	0.06439596
33	0xbebca2c5	-0.36842933
34	0x3e5cbafe	0.21555707
35	0xbdf7c162	-0.12097432
36	0xbe78b893	-0.2428916
37	0x3f1e050f	0.6172647
38	0x3e243e3a	0.16039363
39	0x3d466d86	0.048444293
40	0xbe130eca	-0.1436111
41	0x3da328d8	0.07966775
42	0xbe12bcc6	-0.14329824
43	0x3df6c394	0.12049022
44	0x3da9b597	0.08286589
45	0x3e10e0f9	0.1414832
46	0x3d0a206a	0.03372232
47	0xbf2b0130	-0.66798687
48	0xbe92761a	-0.2860573
49	0x3e15d380	0.14631462
50	0x3e3fcb9c	0.18730015
51	0xbe4d68bc	-0.20059484
52	0x3e7d192e	0.24716637
53	0xbdd13fac	-0.102172226
54	0xbe83eead	-0.25768033
55	0xbdc953c1	-0.09830428
56	0x3d08de74	0.033415273
57	0xbf33ec27	-0.70282215
58	0x3d71ac0f	0.05900198
59	0xbd2279cb	-0.039666932
60	0xbe1fc749	-0.15603365
61	0x3e4d5055	0.20050175
62	0xbeef047f	-0.46683118
63	0xbd4eefcb	-0.050521653
64	0x3e923b47	0.2856085
65	0xbe8b4228	-0.2719891
66	0xbecdbdf6	-0.4018399
67	0xbc6dd651	-0.014516429
68	0xbc5d6419	-0.013512635
69	0x3e4a6238	0.1976403
70	0x3d030031	0.031982604
71	0xbbf5e387	-0.00750393
72	0x3dd351a0	0.10318303
73	0xbf04efce	-0.5192841
74	0xbdee46f0	-0.11634624
75	0x3f1f7b14	0.6229718
76	0xbdcfc1e5	-0.10144404
77	0xbd581f81	-0.05276442
78	0x3d48f8d5	0.04906543
79	0xbed49c98	-0.41525722
80	0xbd20007b	-0.03906296
81	0x3e23f493	0.16011266
82	0xbeaf4d13	-0.3423849
83	0xbea56e85	-0.32310882
84	0x3e5832c6	0.21113119
85	0xbdd653f8	-0.104652345
86	0x3bc2c204	0.0059435386
87	0x3e93b970	0.28852415
88	0x3ecec41a	0.4038399
89	0x3e98b8e7	0.2982857
90	0xbd4e3d2f	-0.050351318
91	0xbe906e36	-0.28209084
92	0x3d1f19d3	0.038842987
93	0xbdf4352f	-0.119242065
94	0xbe2aede9	-0.16692318
95	0xbf2a74a1	-0.6658421
96	0x3dfa7910	0.12230122
97	0xbee9dd9a	-0.4567688
98	0x3ea74df3	0.32676658
99	0x3e58e8bf	0.21182536

net.3.bias f4 [10]
0	0xbb8b9d9f	-0.0042607333
1	0x3b88d773	0.004176074
2	0xb8974388	-7.21282e-05
3	0xba5a27f2	-0.00083219924
4	0x3b27b99e	0.0025592814
5	0x3a331bbc	0.0006832441
6	0x3b3fe56d	0.0029281036
7	0xbaf2af6e	-0.0018515417
8	0xbb93d4e0	-0.0045114607
9	0x3b43b623	0.00298632

net.4.weight f4 [10]
0	0x3fb0b244	1.3804402
1	0x402bf776	2.6869788
2	0x4019d33a	2.4035172
3	0x3fc69c58	1.5516462
4	0x3f9be24f	1.2178439
5	0x3fb00115	1.375033
6	0x40000f26	2.0009246
7	0x4039c87e	2.902862
8	0x403902c9	2.890795
9	0x400f625e	2.2403789

net.4.bias f4 [10]
0	0x3c456913	0.012048977
1	0xbf36bdd6	-0.71383417
2	0xc02edada	-2.7321076
3	0x401bbddd	2.4334633
4	0xbf229b4b	-0.6351821
5	0x3e9719d6	0.295119
6	0xc019887b	-2.398955
7	0x3fb4f78c	1.4138045
8	0xbf7fc25f	-0.9990596
9	0xbfd324a8	-1.6495562

net.4.running_mean f4 [10]
0	0xbf14c3bc	-0.58111167
1	0x3e57fe6b	0.21093147
2	0x3c5afcf1	0.01336597
3	0x3ed53cdf	0.41648003
4	0xbe9d9413	-0.30777034
5	0xbf21691d	-0.63051015
6	0xbd99d2d2	-0.07510914
7	0x3e543e06	0.20726785
8	0x3d3fd3e6	0.04683294
9	0xbf208049	-0.6269575

net.4.running_var f4 [10]
0	0x3d666064	0.05624427
1	0x3e19aea4	0.15008026
2	0x3e9d6b75	0.30746046
3	0x3d37fc03	0.04491807
4	0x3d1a665c	0.037695274
5	0x3cb83da8	0.022490337
6	0x3def3d94	0.11681667
7	0x3f1fca10	0.624177
8	0x3dad50df	0.084626906
9	0x3f025a82	0.50919354

net.6.weight f4 [1, 10]
0	0xbfd595e1	-1.6686364
1	0x402b8268	2.6798344
2	0x3f7b5457	0.9817557
3	0x3fb89d4a	1.4423001
4	0xbf5bf716	-0.859239
5	0x3fa9ef44	1.3276143
6	0x3fcaf98a	1.5857403
7	0xbffac865	-1.9592406
8	0xc00176b5	-2.0228703
9	0xc019d575	-2.4036534

exp_avg f4 [10, 6]
0	0x3bae2219	0.0053141234
1	0x3c269cb4	0.010169197
2	0xbccf5c65	-0.025312612
3	0x3c67a71a	0.014138961
4	0x3a96ab04	0.0011495058
5	0x3c813e45	0.015776763
6	0xbc48f4af	-0.012265368
7	0xbc061678	-0.008184068
8	0x3cac9fdb	0.021072319
9	0xbc3c2b12	-0.011484878
10	0x3a0e1cd9	0.0005421169
11	0xbc677242	-0.014126362
12	0x3cc9d43b	0.024637332
13	0x3cd033ec	0.025415383
14	0xbd572c62	-0.05253256
15	0x3ca68a5a	0.020329643
16	0xbc2de840	-0.010614455
17	0x3c894fb0	0.01676163
18	0xbc7528f3	-0.014963376
19	0xbc13bbd5	-0.009016951
20	0x3cce9295	0.02521638
21	0xbc33037d	-0.010926125
22	0x3c6dee3d	0.014522132
23	0xbc16a5ca	-0.009194801
24	0x3ae69596	0.0017592188
25	0x3b235248	0.002492087
26	0x3aa59366	0.0012632429
27	0x3b834511	0.004006036
28	0x3ba09a53	0.0049012094
29	0xbaffd861	-0.0019519442
30	0x3af3939e	0.0018583422
31	0x3bc7c864	0.0060968865
32	0xbc57a373	-0.013161528
33	0x3ac99ab4	0.0015381188
34	0xbbd7eef2	-0.006589764
35	0xbaaa98cf	-0.0013015511
36	0x3b7e4d63	0.003880345
37	0x3a5207c3	0.0008012021
38	0xbc14a5d7	-0.009072742
39	0xbb0a41ca	-0.0021096342
40	0xbc18f16a	-0.009334901
41	0x3ad42b79	0.0016187272
42	0x3957eb94	0.00020591757
43	0x39c8918e	0.0003825542
44	0x3c1c76bd	0.009549794
45	0x3b376e54	0.0027989345
46	0x3c15f544	0.009152714
47	0xbbcd6d94	-0.0062691662
48	0xba10b46d	-0.00055200496
49	0x3a53349a	0.00080568495
50	0xb746be1b	-1.1845982e-05
51	0x3ba555fc	0.0050456505
52	0xbc0cfc73	-0.00860511
53	0xb8595908	-5.181975e-05
54	0xbb040208	-0.0020142812
55	0xbb510030	-0.003189098
56	0x3c8670b4	0.016411163
57	0xbb57ace4	-0.0032909447
58	0x3b89bffe	0.0042037955
59	0xbb82f216	-0.003996144

exp_avg_sq f4 [10, 6]
0	0x3bb3c70b	0.0054863743
1	0x3c31d0a5	0.010852967
2	0x3d3cb659	0.046072338
3	0x3cf8032d	0.030274952
4	0x3af65970	0.0018794965
5	0x3c0381a4	0.008026514
6	0x3c73aca1	0.014872701
7	0x3c2f329d	0.0106932195
8	0x3d1fa839	0.03897879
9	0x3c3272f7	0.010891668
10	0x3a47d468	0.00076228986
11	0x3b98aae9	0.004659046
12	0x3cedab08	0.029012218
13	0x3cbdea62	0.023183051
14	0x3df16b7c	0.11788079
15	0x3d16909a	0.036758997
16	0x3b22d478	0.002484588
17	0x3c7343a6	0.014847672
18	0x3cf1cc6a	0.029516418
19	0x3c95686e	0.018238273
20	0x3dafc764	0.085829526
21	0x3d0ba759	0.034095142
22	0x3b371ec2	0.0027941917
23	0x3c84b72f	0.01620063
24	0x3957c2c7	0.00020576558
25	0x3a85c8a2	0.0010206888
26	0x3a7b4d8b	0.0009586445
27	0x3ac25b3f	0.0014828219
28	0x399de436	0.00030115404
29	0x398be3b8	0.0002668181
30	0x39e0e8c8	0.00042898045
31	0x3acc36a3	0.0015580248
32	0x3bd1a407	0.0063977274
33	0x3a96727e	0.0011478213
34	0x3a4e7c9f	0.00078768464
35	0x3ac3fe26	0.0014953061
36	0x3bd6f8bc	0.006560413
37	0x3b87e21f	0.004146829
38	0x3c6148f7	0.013750306
39	0x3b54295d	0.0032373287
40	0x3aba3b40	0.0014208332
41	0x3956c1e4	0.0002048086
42	0x378d4fe3	1.684571e-05
43	0x3814a141	3.543613e-05
44	0x3bda60a5	0.006664353
45	0x3b3a1e95	0.0028399576
46	0x3a1360bd	0.000562202
47	0x3b795413	0.0038044497
48	0x3b4317a6	0.0029768734
49	0x3a5e9f07	0.0008492325
50	0x3bd9e5fd	0.006649731
51	0x3b31776f	0.0027079245
52	0x3a86e9f4	0.0010293112
53	0x3b81fe5f	0.003967091
54	0x398bf1aa	0.000266922
55	0x395ffb6d	0.000213606
56	0x3b5ccacc	0.0033690212
57	0x39adab63	0.00033124824
58	0x39947728	0.00028317538
59	0x3a0ee464	0.0005450903

exp_avg f4 [10]
0	0x318fb3c0	4.182283e-09
1	0x312a9580	2.4823237e-09
2	0xb17ca0af	-3.6762164e-09
3	0xb15b9d66	-3.1958165e-09
4	0x2ed21dcb	9.554987e-11
5	0x30b05a1c	1.2831296e-09
6	0x2f0568a6	1.2133458e-10
7	0x30352195	6.589514e-10
8	0x30221e19	5.897803e-10
9	0x304400fc	7.1305784e-10

exp_avg_sq f4 [10]
0	0x25139dd5	1.2803693e-16
1	0x24d92c34	9.418363e-17
2	0x255fac18	1.9400474e-16
3	0x2594cbff	2.581214e-16
4	0x23d9a60f	2.3597516e-17
5	0x24d93420	9.419705e-17
6	0x2509bc5d	1.1946676e-16
7	0x2544d0be	1.7071015e-16
8	0x249dea83	6.8485175e-17
9	0x23f37d9a	2.6399307e-17

exp_avg f4 [10]
0	0xb9760b12	-0.00023464512
1	0x3a68b5a8	0.00088771665
2	0x39dda62d	0.00042276215
3	0xbb1acc9e	-0.0023620497
4	0xba8db134	-0.0010810257
5	0xba0daaf4	-0.0005404197
6	0xba260134	-0.0006332577
7	0xbbbdce43	-0.0057924106
8	0x3aebc09c	0.0017986479
9	0xba3f731c	-0.00073032244

exp_avg_sq f4 [10]
0	0x3aa2ed0f	0.0012430268
1	0x369901fa	4.5599854e-06
2	0x3825337a	3.9387007e-05
3	0x3a18e421	0.00058323337
4	0x36f1fe1f	7.2119433e-06
5	0x3812f07a	3.5033074e-05
6	0x3789eb62	1.6441281e-05
7	0x3bb90e9b	0.005647493
8	0x39b3e7fe	0.00034314388
9	0x37e1b278	2.6905196e-05

exp_avg f4 [10]
0	0xb940431b	-0.00018335546
1	0xba7e0a07	-0.0009690825
2	0xb9084bef	-0.00012998258
3	0x3a97454d	0.0011541039
4	0xbb8f2ffa	-0.004369733
5	0x3a692463	0.00088936667
6	0x38cf6b90	9.890564e-05
7	0x3b50eeae	0.0031880545
8	0x3a94cdb6	0.001135281
9	0xba29a55c	-0.0006471479

exp_avg_sq f4 [10]
0	0x3b179627	0.002313027
1	0x393dc310	0.00018097111
2	0x3a8a2929	0.0010540831
3	0x3b2e2b7c	0.0026576212
4	0x39ed985d	0.00045317682
5	0x3889a13b	6.5627006e-05
6	0x3932acd1	0.00017039782
7	0x3aee86da	0.0018198148
8	0x3a13f28c	0.0005643747
9	0x385de7bd	5.290633e-05

exp_avg f4 [10, 10]
0	0xbb4b081f	-0.0030980182
1	0xbc293669	-0.010327914
2	0xbb9ae353	-0.004726806
3	0x3bff1169	0.007784058
4	0xbc608f9f	-0.013706117
5	0x3c814d6f	0.015783994
6	0xbc5241e2	-0.0128330905
7	0x3b8ee883	0.0043612137
8	0x3c2626d3	0.010141092
9	0x3b3e4973	0.0029035478
10	0xbc3e2ded	-0.011607629
11	0x3d2a1849	0.041527066
12	0x3d0e4082	0.03472949
13	0xbd0c0bb1	-0.034190837
14	0x3c24274a	0.010019133
15	0x3c46c808	0.012132652
16	0x3c926b24	0.017873354
17	0xbb376599	-0.002798414
18	0xbce6af5a	-0.028159786
19	0x3bc66cc0	0.0060554445
20	0xba847869	-0.0010106686
21	0x3b92fe50	0.004485883
22	0x3b3a049b	0.0028384093
23	0xbb4eb3b7	-0.0031540224
24	0x3b1450cb	0.0022631164
25	0xbad552b1	-0.0016275254
26	0x3ad5175a	0.001625757
27	0xbaaf9ccc	-0.001339817
28	0xbb29a6f9	-0.0025886877
29	0xb8e2756d	-0.00010798392
30	0x3b04d07c	0.0020265868
31	0x3bd7534f	0.0065712105
32	0x3b6bedfc	0.0036000004
33	0xbab883a9	-0.0014077324
34	0x3b8ab122	0.0042325417
35	0xbba03987	-0.0048896703
36	0x3ab12ea9	0.0013517934
37	0xbaca6b93	-0.0015443437
38	0xbb6fbfe0	-0.0036582872
39	0xbafc63ae	-0.0019255781
40	0x3b73563e	0.0037130262
41	0xbc22fc85	-0.009947901
42	0xbc01e58b	-0.007928262
43	0x3bfbc927	0.0076838913
44	0x3a07442f	0.00051600015
45	0xbb1f90d0	-0.002434779
46	0xbbb7dfda	-0.005611402
47	0xbaa24190	-0.0012379158
48	0x3bc68471	0.0060582687
49	0xbb9504f8	-0.0045477115
50	0xbc30190f	-0.010748162
51	0x3cdfd13e	0.027321454
52	0x3cb756de	0.022380289
53	0xbccf2d72	-0.025290225
54	0xb9bc100d	-0.00035870113
55	0x3c0ef801	0.008726121
56	0x3c5c786c	0.013456445
57	0x3b04675b	0.0020203206
58	0xbcabc1d9	-0.020966457
59	0x3c3b8768	0.011445858
60	0xbb1bfd9d	-0.0023802288
61	0x3c5b6a4f	0.013392045
62	0x3bf23610	0.0073916987
63	0xbc26d5e9	-0.010182836
64	0x3b1e56d6	0.0024160645
65	0xbbc36878	-0.0059633814
66	0x3c14bff7	0.009078971
67	0xba047b8f	-0.0005053812
68	0xbc328b38	-0.01089745
69	0x3b814370	0.0039448068
70	0x3a59b50c	0.0008304871
71	0xbc1603e7	-0.009156204
72	0xbb957d26	-0.004562038
73	0x3ba83114	0.0051328037
74	0xbb72cce4	-0.0037048394
75	0x3b2b9da5	0.0026186493
76	0xbb4dfc9d	-0.0031431087
77	0x3ab19905	0.0013549632
78	0x3b9b8a48	0.004746709
79	0x39f9dc42	0.00047657086
80	0x3c677335	0.014126589
81	0xbcf5cbf7	-0.030004485
82	0xbc9f24cf	-0.019426731
83	0x3cc70990	0.024296552
84	0xbc415a91	-0.011801378
85	0x3c62c29f	0.013840347
86	0xbc655021	-0.013996155
87	0x394b0bdf	0.00019364011
88	0x3c971de8	0.018446878
89	0xbbb30b20	-0.0054639727
90	0x3aa58322	0.0012627582
91	0xbc03bc7d	-0.008040545
92	0xbb63e088	-0.0034771282
93	0x3bb4884f	0.0055094133
94	0xbb7d37fe	-0.003863811
95	0x3ba1660d	0.0049254955
96	0xbbaf5cc8	-0.0053516366
97	0x3ac04434	0.0014668764
98	0x3bb756c8	0.005595062
99	0xb947a34a	-0.00019038949

exp_avg_sq f4 [10, 10]
0	0x3b4691e5	0.0030299362
1	0x3ca47e15	0.020079652
2	0x3cf17354	0.029473938
3	0x3cf13294	0.029443063
4	0x3cfe1844	0.03101743
5	0x3c84ae14	0.016196288
6	0x3c1ec7e4	0.009691212
7	0x3bc79445	0.006090673
8	0x3ca22f98	0.019798085
9	0x3d2afecd	0.041746903
10	0x3c7eda71	0.01555501
11	0x3d49b83b	0.04924796
12	0x3d8938c2	0.06700279
13	0x3d8bc232	0.06824149
14	0x3d943c37	0.072380476
15	0x3d3ac921	0.045601968
16	0x3cb0112f	0.021492569
17	0x3c62cb23	0.013842377
18	0x3d0fcd21	0.035107736
19	0x3dccdf98	0.100035846
20	0x38b9b7cc	8.855722e-05
21	0x39e7bc03	0.00044199833
22	0x38bceb92	9.008417e-05
23	0x39ae0337	0.00033190261
24	0x39e3f0ed	0.00043476318
25	0x3992fad6	0.00028034177
26	0x39fadd56	0.00047848624
27	0x397fa1d3	0.0002437898
28	0x39b15874	0.00033825974
29	0x37b72309	2.1831615e-05
30	0x39c684bb	0.00037864395
31	0x3af7fe10	0.0018920321
32	0x39ec2d52	0.00045047194
33	0x3a4083b3	0.00073438435
34	0x3b975deb	0.00461935
35	0x39d5f5df	0.00040809714
36	0x3b25ce06	0.0025299801
37	0x3acebec4	0.0015773405
38	0x3a924321	0.0011158922
39	0x3b8672f6	0.00410306
40	0x3b274613	0.0025523945
41	0x3bda779d	0.006667091
42	0x3c0e35bc	0.008679803
43	0x3c2dd8b6	0.01061075
44	0x3c2ea466	0.010659313
45	0x3ba9ae54	0.0051782522
46	0x3b4ca318	0.003122514
47	0x3af87bd2	0.00189578
48	0x3bc7818d	0.0060884417
49	0x3c4510a5	0.012027894
50	0x3c123a0f	0.008924975
51	0x3d3abc8f	0.04558998
52	0x3d507dd0	0.050901234
53	0x3d6ac968	0.057320982
54	0x3cfb3200	0.03066349
55	0x3c95e5d1	0.018298062
56	0x3c905274	0.017617442
57	0x3b492604	0.0030692825
58	0x3cee2ffb	0.029075613
59	0x3d5b1191	0.05348355
60	0x39b47722	0.00034421036
61	0x3b3bbdc2	0.002864704
62	0x3a29e1ba	0.0006480474
63	0x3ac55648	0.0015055621
64	0x3b1ed2b1	0.0024234469
65	0x39dfc7a0	0.00042682607
66	0x3b0ab5bc	0.002116545
67	0x3a7221c7	0.00092366006
68	0x3acd9053	0.0015683271
69	0x3ab45497	0.001375812
70	0x3a7f8e3f	0.00097486743
71	0x3ac5c509	0.0015088628
72	0x3aacb140	0.0013175383
73	0x3b47022d	0.0030366287
74	0x3beec50b	0.007286673
75	0x3a2aa3ba	0.00065093825
76	0x3b348fce	0.0027551535
77	0x3b1d93f2	0.002404448
78	0x3b83ca9f	0.004021957
79	0x3c0716b0	0.008245155
80	0x3cddfaf1	0.027097197
81	0x3dc5ea43	0.096638225
82	0x3de21f8b	0.110411726
83	0x3debacea	0.1150759
84	0x3da7d462	0.08194806
85	0x3d52be6e	0.05145114
86	0x3d1e1560	0.038594604
87	0x3c8a40fa	0.016876686
88	0x3da12da4	0.078700334
89	0x3dfed150	0.12442267
90	0x3a9a6042	0.0011777955
91	0x3ad9c859	0.0016615494
92	0x3aada98c	0.0013249381
93	0x3b520442	0.0032045995
94	0x3bf4753c	0.0074602645
95	0x39ecd874	0.00045174698
96	0x3b3eba3e	0.0029102708
97	0x3b07eaac	0.002073924
98	0x3b558deb	0.003258581
99	0x3c0a1c0e	0.00842954

exp_avg f4 [10]
0	0xb00bd930	-5.087655e-10
1	0xb1440eae	-2.8530098e-09
2	0xaf81f411	-2.3638383e-10
3	0xb2184822	-8.863966e-09
4	0x3204a5e2	7.721129e-09
5	0x31124606	2.12856e-09
6	0xb19d99ea	-4.5867994e-09
7	0xb10692d8	-1.9583037e-09
8	0xb0c6c77d	-1.4463094e-09
9	0x31568d00	3.1221248e-09

exp_avg_sq f4 [10]
0	0x25c19daf	3.3587014e-16
1	0x258ec721	2.4768008e-16
2	0x24626c56	4.9097702e-17
3	0x25e35008	3.9432454e-16
4	0x2502f0a4	1.1357235e-16
5	0x26805f59	8.907628e-16
6	0x254ab6a4	1.7582588e-16
7	0x24deb563	9.6584434e-17
8	0x25d19869	3.6358998e-16
9	0x24d8a900	9.3961365e-17

exp_avg f4 [10]
0	0x3a9ffdb0	0.0012206342
1	0x3ad6d31d	0.0016389821
2	0x3a33e2ff	0.0006862133
3	0x3a28f983	0.00064458715
4	0xb99cf5aa	-0.00029937673
5	0x39f1ed88	0.00046144077
6	0x3a081f20	0.0005192626
7	0x3a41403a	0.0007371936
8	0x39be7690	0.0003632796
9	0x38f77173	0.000117990094

exp_avg_sq f4 [10]
0	0x382bd9d2	4.0972438e-05
1	0x37b78e41	2.1881542e-05
2	0x395f0ca0	0.0002127164
3	0x39d1cab2	0.00040014606
4	0x3854e367	5.0756524e-05
5	0x37dab698	2.6072652e-05
6	0x3a07d8d2	0.000518215
7	0x38b971db	8.842695e-05
8	0x36c75fda	5.9418207e-06
9	0x39995df3	0.00029252432

exp_avg f4 [10]
0	0xbad1dd23	-0.0016011338
1	0x3bb17a91	0.0054162224
2	0x39c1cc20	0.00036963914
3	0xb9c97edf	-0.00038432234
4	0xbaafa662	-0.0013401026
5	0x3a7e4f7a	0.0009701174
6	0x39e43a77	0.00043531109
7	0xba79059b	-0.00094994315
8	0x39e86fce	0.0004433379
9	0xb9a08bd2	-0.00030621752

exp_avg_sq f4 [10]
0	0x3951dc3f	0.00020013841
1	0x3a0659c3	0.000512507
2	0x39258398	0.00015784649
3	0x395038c4	0.00019857573
4	0x38d4a6ba	0.00010140003
5	0x3982f8d2	0.00024980918
6	0x39b7dd26	0.00035069248
7	0x39b1d0d8	0.00033915672
8	0x38c4ff60	9.3935756e-05
9	0x3a033b4a	0.0005006088

exp_avg f4 [1, 10]
0	0xbb1a2b35	-0.0023524289
1	0x3ab62b2d	0.0013898365
2	0xba326cac	-0.00068063545
3	0x3b28f23f	0.0025779156
4	0x3944d7da	0.00018772428
5	0x3aa738b0	0.0012757983
6	0xbabdfc91	-0.0014494826
7	0x3a8abc36	0.0010584656
8	0xbaf09b47	-0.0018356823
9	0xbb0fa27d	-0.002191692

exp_avg_sq f4 [1, 10]
0	0x390b1f0d	0.0001326764
1	0x382394e5	3.9000897e-05
2	0x39fcb2a1	0.00048198274
3	0x394bd159	0.00019437577
4	0x3892bac2	6.996609e-05
5	0x392a5a51	0.00016246109
6	0x39fcf8ab	0.00048250458
7	0x39aca80d	0.00032931604
8	0x37503bc8	1.2411685e-05
9	0x399085ec	0.000275656
