0705optimize/pinn_run_20250705-213457_train_sampled_6000.csv_Dmin_norm.pth (torch, 47409 bytes, 19 tensors)

net.0.weight f4 [60, 8]
00000000: 7641 34bb bbf6 093e 6f9d ad3e 2e2b 8cbe
00000010: d532 c2be a200 433e 0bdc 013d d172 12be
00000020: 8e5e 69be abb0 e13e cd75 4ebd 4732 38be
00000030: bef7 d93e 882c 1abe 6738 c6bd e70a 2bbe
00000040: 783b 1bbd 7908 7cbe cf0d 27be fd1e a93e
00000050: 1e5f 8c3e b3fa 0dbe ed7a d03b a466 bfbe
00000060: 6088 c4be fe54 08be a459 953e 2419 793e
00000070: c4fa ec3d 2f2b a23d ec7e 4bbd 8913 983e
00000080: 09b1 7e3d 7a73 b73d 1f47 aa3d 5416 3dbd
00000090: 0f50 92bd b17d 263d c6c1 a83e f45e 103f
000000a0: 1f90 0f3c 9a1e 433e 9a5c d73e c102 853e
000000b0: 814f 10bc 671f 933d 04e9 a33c d791 a43e
000000c0: 7e42 45be 7e12 1c3f 706b d6be 06f3 ed3d
000000d0: 1f3a 2ebe 9e53 7f3d bc3d bcbd affa 0b3e
000000e0: e13c 893e d186 dfbe 4f0a 9cbe 3b1e 95bd
000000f0: 3715 05bc 5db4 1abd e9c5 84bc a6d2 a53d
00000100: 29e7 593e d197 913e 78fb 9dbe f6c1 92be
00000110: 809a fe3d dd20 963c 2207 30be 4569 91be
00000120: 3e30 c03e 55ee 71be ea4f 17bd deb7 663e
00000130: 8073 573e c634 0abc 1398 833d 4213 743e
00000140: 30a4 853e 9f0f 3cbe 22ea d73e f130 0bbe
00000150: 754b 29be 07bb 933e d784 1c3e ef97 503e
00000160: 3354 49be cacc f83e 1ed3 59be 0d05 4cbd
00000170: 0df0 fb3d 8c73 e7bd 0033 7d3d cb82 4ebe
00000180: a830 07be 7551 8f3e 60f0 523e 4802 bf3e
00000190: 0dde c4bd 423e 38be 9db4 62be ce7d 0bbe
000001a0: 400e 8d3e 14d6 2cbf 6824 4fbd 8856 b6bc
000001b0: 3ead 9c3e 9461 9cbd 8089 903c 1bff 91be
000001c0: f54d 3d3c a87a 62be 3a5e 693e 27ec 923e
000001d0: 1689 2e3f 9f92 693e 858b 9a3d 9284 c83e
000001e0: f207 54bf 78f7 e23d 20e2 993d 3020 d7bd
000001f0: 9e52 453e 46f9 c4bd c311 1fbe 734d 633c
00000200: 8b11 48bc 4621 89be 016a 7b3d 56b8 523e
00000210: d6e9 cfbe 6ad5 b93e 4d44 133e 8c49 aabe
00000220: 47f3 83bd 1aa5 6d3e 2439 efbe 4454 57be
00000230: 3657 87be b08f 8cbd 062c a13c afe6 93bd
00000240: 0724 89bc 18fe 073d d4b8 993d e189 f33e
00000250: 2ad0 c93e 8d7f 79be 8139 cebd 5189 333e
00000260: 1905 6e3e 25fd c33d 0b5a a5bd 8bb6 f23e
00000270: f3c7 9d3e c72a 31bd 4694 79bd d27e 843e
00000280: 2208 043f 790f a23d 177b 283e 3602 acbd
00000290: cac1 793e afff 2bbe 859e eabd 8907 1ebd
000002a0: d900 233c eb8c 823d 328b 13be a9d5 c03e
000002b0: 1d2c 8a3c f143 c6be a438 f0bd 64af babe
000002c0: 2618 dfbd 4a64 c0bd a200 39be 0e5a 82be
000002d0: b6ff 38bf 4b42 153e 5f24 263e eeb0 01be
000002e0: 30e8 53ba 80a2 733e da8e 103d 1f3d bfbe
000002f0: e19d 553e 9995 9e3d 3fb6 593e b82a b73e
00000300: d104 b1bd 9fd5 7abe 3e8e 3ebe c2f5 6cbe
00000310: b483 edbe 00c4 a3be 8812 86be 5fb8 513d
00000320: 83b0 b83e b8f3 ed3e df02 4e3e 292e 5abd
00000330: 026b 44be 094c 53be 9216 643d dd85 e6bd
00000340: 58d9 ee3b 593b 1f3e 0267 a5be 1150 18be
00000350: 8bb3 d8bd 2a68 a4bc 0c60 b03e 6e2a 91be
00000360: 4b4c 86bd ddd6 68bd b80b 8abe 8ea2 3dbe
00000370: 440d f13e b288 293e c193 713c 432e ba3e
00000380: a3cc 77bc 6a9b f03d d956 fcbe 9aff bcbd
00000390: c8a6 a6be b932 92be 68f2 ecbd 03a1 04be
000003a0: 68e2 bebe 538f b9be d75b a7bd 3e19 e43d
000003b0: ea67 c1bd 3022 7d3e d2cd 383d b451 2bbe
000003c0: da1f 7dbd 04c2 e93c ca97 81be 47f1 08be
000003d0: 5beb 673c cd8f 01bd c8c6 febe cfc4 003e
000003e0: b488 fe3e c06f 623e 3ee2 85be 9c5f 10bc
000003f0: ef56 3cbd c3d1 4bbc f757 7f3d 3149 7d3e
-0.0027504838 0.13473026 0.33909175 -0.27376693 -0.37929407 0.1904321 0.03170399 -0.14301611
-0.22789976 0.440801 -0.050405312 -0.1798793 0.42571825 -0.1505605 -0.09678727 -0.16703378
-0.03789851 -0.24612607 -0.16313861 0.33031455 0.2741632 -0.13865165 0.00636231 -0.37382996
-0.38385296 -0.13313672 0.29169953 0.24325997 0.11571267 0.07918393 -0.04968159 0.29702404
0.062180553 0.08957572 0.083143465 -0.046163872 -0.07144176 0.040647212 0.32960337 0.56394887
0.0087623885 0.19054642 0.42062837 0.25978664 -0.008808018 0.07183724 0.020008571 0.32142517
-0.19263646 0.60965717 -0.41878843 0.11618619 -0.17014359 0.062335603 -0.091914624 0.13669847
0.2680426 -0.43657544 -0.30476615 -0.07281157 -0.008122734 -0.037769664 -0.016207652 0.080968186
0.21279587 0.2843614 -0.30855918 -0.28663605 0.12431812 0.018326217 -0.17190221 -0.28400627
0.37536806 -0.23626073 -0.036941446 0.22531077 0.21040154 -0.008435434 0.0642549 0.23835471
0.26101828 -0.18365334 0.42170817 -0.13592888 -0.16532691 0.28853628 0.1528505 0.20370458
-0.19661026 0.48593742 -0.21271941 -0.049809504 0.123016454 -0.11301336 0.061816216 -0.20167081
-0.13202155 0.27991834 0.20599508 0.37306428 -0.09612665 -0.179925 -0.22139211 -0.1362221
0.27549934 -0.6751416 -0.05057183 -0.022258058 0.30600923 -0.07635799 0.01764369 -0.28514943
0.011554231 -0.22117102 0.22789851 0.28695795 0.68177927 0.22809838 0.075461425 0.39163643
-0.82824624 0.11082357 0.07513833 -0.10504186 0.19269797 -0.09617858 -0.1553412 0.013873446
-0.012211214 -0.26783198 0.06138039 0.20578131 -0.4060809 0.36295635 0.14381523 -0.33259237
-0.06442886 0.23207512 -0.46723282 -0.21028239 -0.26433724 -0.06863344 0.019674312 -0.07221734
-0.016740812 0.033201307 0.07505956 0.4756613 0.3941663 -0.24365063 -0.10069562 0.17532851
0.23244132 0.09569768 -0.08073815 0.47404894 0.30816612 -0.043253686 -0.06093242 0.25878006
0.5157491 0.079131074 0.16453205 -0.08398859 0.24390331 -0.16796754 -0.114560165 -0.038581405
0.009948933 0.06374534 -0.14408568 0.3766301 0.016866738 -0.3872371 -0.11729553 -0.36461937
-0.10893278 -0.093941286 -0.18066648 -0.2545933 -0.72265184 0.1457607 0.16224812 -0.1266515
-0.000808361 0.23792458 0.035292484 -0.3735132 0.20861007 0.07743377 0.21260928 0.3577478
-0.08643497 -0.24495552 -0.18608949 -0.23140624 -0.46389544 -0.31985474 -0.26186013 0.05120122
0.36072168 0.46475005 0.20118283 -0.053266678 -0.19181445 -0.20634474 0.055685587 -0.11256001
0.007289093 0.15549983 -0.3230515 -0.14874293 -0.1058112 -0.0200692 0.34448278 -0.28352684
-0.065575205 -0.056845535 -0.26962066 -0.18519041 0.47080433 0.16556051 0.0147447 0.3636342
-0.015124473 0.11748393 -0.4928501 -0.0922844 -0.3254912 -0.28554323 -0.11569673 -0.12952046
-0.3728211 -0.3624216 -0.08171814 0.11137627 -0.09443648 0.24720073 0.04511816 -0.16730386
-0.061797954 0.028534897 -0.25311118 -0.1337329 0.014155234 -0.03163128 -0.49761033 0.12575077
0.4971367 0.22112942 -0.26149172 -0.008811858 -0.045981344 -0.012440148 0.06233975 0.24734952

net.0.bias f4 [60]
00000000: f972 c637 2fad 49b9 0731 9d36 b0ba 03b8
00000010: c688 f538 a294 ecb8 12e8 48b9 eaed 96b7
00000020: 31af c8b8 5be3 2337 4782 0538 0007 1db8
00000030: 0df0 2838 097e 2638 0260 a8b9 0f86 f537
00000040: 880e cb36 b277 ccb8 780d a8b8 410a 4bb9
00000050: b768 b6b8 8bf1 a8b7 ab6f 2c37 2c76 f4b7
00000060: 1a6a d438 ce8b e1b8 445b bbb6 9174 cd38
00000070: 4abe 14b9 e3f3 30b7 f088 99b8 9a87 d7b8
00000080: cecd 8238 388d 21b8 011e 0fb8 8e53 ab33
00000090: 551b f9b7 2be4 9339 5212 4337 a53c 0238
000000a0: dc8d 0d39 cb3a 14b8 3bea 04b8 252c 9639
000000b0: 0d5b 3eb8 51c5 01b9 1528 68b7 d838 0639
000000c0: 32e6 f638 d62a 3239 2e05 6d39 1978 28b8
000000d0: 8d0a ec37 8bba 9637 5b3d 49b9 c8d8 2b38
000000e0: 5127 3437 d6bf b838 a44b dcb7 c99a 06b9
2.3656978e-05 -0.0001923337 4.684672e-06 -3.14067e-05 0.000117079864 -0.00011281042 -0.00019159939 -1.799218e-05
-9.569375e-05 9.768492e-06 3.1831e-05 -3.7438236e-05 4.0277886e-05 3.9694864e-05 -0.00032114988 2.9268702e-05
6.051563e-06 -9.749773e-05 -8.013373e-05 -0.00019363409 -8.697941e-05 -2.0139638e-05 1.0277999e-05 -2.9142095e-05
0.00010128711 -0.00010754877 -5.583659e-06 9.796874e-05 -0.00014185268 -1.0547202e-05 -7.321115e-05 -0.00010277257
6.237217e-05 -3.851691e-05 -3.41218e-05 7.9780065e-08 -2.969584e-05 0.00028208023 1.1627171e-05 3.1050895e-05
0.00013499655 -3.5340705e-05 -3.1689397e-05 0.0002864312 -4.5384328e-05 -0.00012375905 -1.383761e-05 0.00012800412
0.00011773071 0.0001699136 0.00022604011 -4.016617e-05 2.8138305e-05 1.796826e-05 -0.0001919171 4.097147e-05
1.073799e-05 8.809536e-05 -2.6261267e-05 -0.00012836898

net.1.weight f4 [60]
00000000: 2381 ef3f a20f 1040 7e54 7b3f 4277 c43f
00000010: d8b2 583f 411e 3840 58b9 d23f 5e95 a43f
00000020: 04a9 a93f e8aa 363f 293e 943f f5e7 873f
00000030: 8c9e af3f 6057 9c3f 72ca 3040 3a87 aa3f
00000040: 7a5b e33f 4200 c63f 2160 1140 4657 8a3f
00000050: 25ca 733f 953e cc3f 3d86 b23f a650 f73f
00000060: bb3e a93f 3531 823f 2761 3e3f 84da f43f
00000070: 31d0 0440 48f1 8e3f 550a 803f a761 c03f
00000080: e1a3 d23f 2501 a73f 4e5a 913f 556b d73f
00000090: b829 e03f 685c 0940 901b 2140 79fb c43f
000000a0: 253e c63f 1d52 523f 8567 3440 0dc3 0440
000000b0: 9954 a33f 8c98 bd3f f828 d33f 7061 b93f
000000c0: a80c dd3f 2776 d13f 3d23 ef3f 3669 1840
000000d0: 73ba 723f 4d51 8b3f 70d3 853f 5352 563f
000000e0: bddd 4940 9998 bc3f e0ad c73f a4c0 8e3f
1.8711284 2.2509542 0.981758 1.5348895 0.84647894 2.8768466 1.6462812 1.2858083
1.3254704 0.7135453 1.158147 1.0617663 1.372026 1.2214165 2.7623563 1.3322518
1.7762291 1.5468829 2.2714922 1.0807884 0.95230323 1.5956599 1.3947216 1.9321487
1.3222269 1.0171267 0.7436699 1.9129186 2.075207 1.1167383 1.0003153 1.5029801
1.6456262 1.3047224 1.1355684 1.682963 1.7512732 2.146265 2.5173073 1.5389243
1.5487715 0.82156545 2.8188183 2.074405 1.2760192 1.4812179 1.6496878 1.448286
1.7269487 1.6364182 1.8682629 2.3814216 0.9481575 1.0884186 1.0455151 0.83719367
3.1541588 1.4734069 1.5599937 1.1152539

net.1.bias f4 [60]
00000000: f7ef adbd 3c96 94bf 8a0d 7ebf 19d8 89bf
00000010: cb68 8abe f3ed 02bf 34f6 963e e587 a7bd
00000020: 16b6 eebe a7e0 373f 664a 08bf 628c 513f
00000030: 4086 52bf 1615 aabf 7094 fe3d 7005 00c0
00000040: f6b0 47be 013d 07bf c5d2 ca3e 89f8 34bf
00000050: ae5c 3c3e a0b1 9d3d 7911 3cbd 49d1 f23e
00000060: 0753 a73d 5ef7 e9be 9114 abbd a718 14be
00000070: 633d c9be 72fd 68bf 557e 3abf 12de 853e
00000080: 1f85 e33d 74cf 4b3e 5331 063e 078c a63f
00000090: 7f93 4a3e d6b6 873d eb65 f93d 3ea2 6d3e
000000a0: 8099 42bf 5f69 6d3f 7cd7 783e 9326 0dc0
000000b0: 335c 8cbd 6bd7 ea3e c840 00bf 3eec d23e
000000c0: 6339 9e3e 86f3 e7bf a6cc 1abe ef60 10be
000000d0: 521f 87bf e9b9 613f 2156 29bf ba25 abbe
000000e0: f743 2abe 658a bd3e 7087 02be 6404 4dbf
-0.08493035 -1.1608348 -0.9923941 -1.0769073 -0.27033076 -0.5114433 0.29484713 -0.08180217
-0.46623296 0.7182717 -0.53238523 0.8185483 -0.822361 -1.3287685 0.12430656 -2.0003319
-0.19501099 -0.5282746 0.3961393 -0.70691735 0.1839473 0.07699895 -0.0459151 0.47425297
0.08170133 -0.4569654 -0.08353532 -0.14462529 -0.39304647 -0.91011727 -0.7284902 0.2614599
0.11109375 0.19903356 0.13104753 1.3011483 0.19782828 0.0662667 0.121776424 0.23206422
-0.7601547 0.9273891 0.24300951 -2.2054794 -0.06853523 0.45867476 -0.5009885 0.41195863
0.30903158 -1.8121192 -0.1511713 -0.14099477 -1.0556433 0.881743 -0.6614705 -0.3342722
-0.16627489 0.3701965 -0.12746978 -0.80084825

net.1.running_mean f4 [60]
00000000: df43 4d38 df5b a537 2688 0738 6b3f 3cb8
00000010: 97d7 a6b8 76c5 37b7 c989 1bb8 a04e 81b7
00000020: 463d 2c38 d1f9 84b7 8327 4eb7 6303 1b37
00000030: 2c5a 6638 dbdf 9d37 d9d1 6cb8 1ece 9837
00000040: 99da 7638 5c96 d736 87bb 2437 c87a 08b8
00000050: 647f 9937 5f23 3a38 d57b ab37 c989 45b8
00000060: c8ba 5eb7 cc14 1d38 5709 6838 3526 68b8
00000070: 9daf b037 c904 4737 3e74 b8b7 96a9 1cb8
00000080: 5db6 92b6 3a75 e5b7 bd96 e337 9c56 09b7
00000090: fedc 9bb8 8820 4938 f3a1 f836 d3a5 d9b7
000000a0: 185a 73b8 1db6 42b8 c625 2a38 114f a2b8
000000b0: e01f 0d37 322e 34b7 8aa7 b9b8 e189 bab8
000000c0: 2228 b338 0f0b 52b7 1dcf 7337 7d5e cab6
000000d0: 2647 7bb6 be7f a337 375e 9537 6349 5938
000000e0: fe8c ec36 289d 41b7 2444 37b7 d93c 0138
4.893902e-05 1.9712314e-05 3.2313306e-05 -4.4881755e-05 -7.9556536e-05 -1.0953625e-05 -3.7083202e-05 -1.5414611e-05
4.106506e-05 -1.5851956e-05 -1.2287756e-05 9.2395085e-06 5.4920252e-05 1.88201e-05 -5.646222e-05 1.8215793e-05
5.8854555e-05 6.4250034e-06 9.818824e-06 -3.2539276e-05 1.8298342e-05 4.4378798e-05 2.0442452e-05 -4.7096783e-05
-1.32757195e-05 3.7451086e-05 5.532181e-05 -5.5348693e-05 2.1062611e-05 1.1862438e-05 -2.1988639e-05 -3.7351238e-05
-4.372369e-06 -2.7353515e-05 2.7130702e-05 -8.186002e-06 -7.432139e-05 4.795243e-05 7.4098293e-06 -2.5945634e-05
-5.801962e-05 -4.642281e-05 4.0566338e-05 -7.739489e-05 8.411676e-06 -1.0739592e-05 -8.852694e-05 -8.894853e-05
8.5428605e-05 -1.251955e-05 1.4532151e-05 -6.031069e-06 -3.7443328e-06 1.9490599e-05 1.7806056e-05 5.180518e-05
7.0497617e-06 -1.1540287e-05 -1.0923515e-05 3.0812665e-05

net.1.running_var f4 [60]
00000000: 1588 a33e e804 b23e 2fee 443e dd2a 3b3f
00000010: 8a4b b03e 1bc5 963e fe8e 5a3f 98ab 7f3e
00000020: 3606 173f 4bc0 bf3e fa3c 8f3e 2f53 eb3e
00000030: 080f 983e 23b7 b63e 4f83 af3f 9999 623f
00000040: 3f3a 7b3e 3497 1a3f caa0 3a3f 4d15 213f
00000050: ea2b 8f3e 2384 9c3e aa80 723f c4c8 1f3e
00000060: 7df4 2f3f 6215 d53e 8a3c 1f3f 59ac ae3e
00000070: fee7 093f ab00 403e 29eb 823e 0007 113f
00000080: 5cb2 883e cd71 f13e 3773 453e 98be 0d3e
00000090: dec7 223f 571f 093e 64aa 983e 9a49 133f
000000a0: 9e59 823f 143d d73e 6cba 443e 86b2 d73e
000000b0: 029d 5e3e 35d1 203f 5642 ef3e 9036 363e
000000c0: de8b 663e 7f26 863f 48a1 8b3e e38a 923e
000000d0: dfd1 d63e e587 0f3f 5095 3f3e ff6a b23e
000000e0: 21d6 a73e e4c3 293e 7ea9 033f 1c6f 9c3e
0.3193976 0.34769368 0.19231485 0.7311228 0.34432632 0.29447255 0.8537444 0.24967802
0.5899385 0.37451395 0.2797621 0.45961902 0.29698968 0.35686597 1.3711947 0.8851562
0.24533938 0.6038697 0.72901595 0.6292313 0.2796319 0.30569562 0.94727576 0.1560393
0.68732435 0.41617876 0.6220175 0.34115866 0.53869617 0.18750255 0.25570038 0.56651306
0.26698577 0.47157136 0.19282232 0.13842237 0.63586223 0.13390861 0.29817498 0.5753418
1.0183599 0.42038786 0.1921174 0.4212839 0.21739581 0.62819225 0.46730298 0.17794251
0.22514293 1.0480498 0.27271485 0.28621587 0.41956994 0.56066734 0.18709302 0.34847257
0.32780555 0.16578633 0.514305 0.3055352

net.3.weight f4 [60, 60]
00000000: 0bba b23d b612 c83d 7f41 683e 41cd 2e3e
00000010: 1c54 493e 32c4 5dbe 7325 04be 5073 0b3c
00000020: ef69 a2bd 1633 3bbe e51a e5bd ab0f 1b3e
00000030: c6a7 2fbe 2caf 8dbd 49b4 1ebd e6ac 073f
00000040: 08cb 6d3e 13b1 7dbd 1be8 35be bbf1 d13c
00000050: 8eb7 243e b4c6 7abd e060 01be 5117 043e
00000060: 2591 4fbe 7124 d8bd 7b4e 34be 624e 4abe
00000070: e898 b4bc 78f2 cdbc fc9b 923c 343c 1d3e
00000080: c4b3 21bd f219 08be 8bad 753c aac1 843d
00000090: 58c5 bdbc c9d3 ed3d 0e9b 51bc a132 e8bd
000000a0: 0652 1b3e bf65 ddbc 0c22 0ebd fb13 16bd
000000b0: 5d77 633e b65d b93d dc7b 61be 9042 3bbe
000000c0: cea5 a8bd 3e84 103e 2fb0 c73d 80f5 2a3e
000000d0: df11 80be be7c 253e 8d1f 553c 1bdd 12be
000000e0: 0e14 fd3c 2dc0 8b3d ec63 acbd eac6 c6bd
000000f0: a1be 4bbe 5a16 6a3e 4a73 88bd 832f 74be
00000100: f05b 3b3e 0876 a6be 404a 893b 77b7 95bd
00000110: 94b7 8dbe a351 2c3c 6f68 5abd e967 2cbe
00000120: 2369 30be bba0 82be 10cc 45be 91b9 d7bd
00000130: 5976 263c 8543 7fbe c6c3 4fbd 7d0c 233d
00000140: 799d 6dbc c7bb 2ebc 6719 843e 7b18 11be
00000150: 6f5d 03be b5a4 18bd ce1b 9e3d db64 48be
00000160: 1a7f d9be bc30 673d a008 963c 511f 8ebd
00000170: 1f50 6dbe 7d65 7dbd c507 7cbc 9683 a83e
00000180: 9145 16bd fe01 0bbe f922 35bd a6c6 ff3e
00000190: b7b1 b7be 5273 633b ffbc 0c3c 584c 2f3e
000001a0: 337e 493e 849c 283d 7669 89bd 83fe f1bd
000001b0: 6552 e6bd 73ba 3fbe c1e6 0ebe b24d abbd
000001c0: bf2a ab3d ccde bf3c ab82 fdbd a1b1 49be
000001d0: 3986 68be 37a1 313e f5bd e8bd 7102 833d
000001e0: be99 57bd b445 dcbd a260 80bd dcb1 73bd
000001f0: a7fe 39bd 8034 35be 945f 64be 5063 fe3d
00000200: f425 7a3d 7211 253d 2b9f b2bd c2c2 fb3d
00000210: 823a 17be 4049 00bf 7637 c2bd 913e edbd
00000220: 3cdc e4ba 86cf 68be 5233 37bd 761f 18bd
00000230: 23f5 d0bd c22b 06be 340a 043e 7dce a73b
00000240: 5fc4 403e b6ef 4abd 0fd7 833e a2e3 3cbd
00000250: da8f b6be 836d 97bd 6103 e8bc 3ed0 423d
00000260: d8eb 42be ef6c 5c3e 3659 05be 72f8 3e3e
00000270: 2aab 133d 34fe b9bd 6e3b 623e c3cd 6e3d
00000280: 95ac 64be 7b5b 5c3e 2145 9d3c a990 6c3d
00000290: 876e 2f3d e230 a43c 22c7 033e 6fad 133b
000002a0: 6a89 fc3c 6aab 56be c8be a83d af8f f73d
000002b0: 7566 2a3d 89da 0c3f b91c c8bc dc16 e43c
000002c0: 7e04 323e 5bc1 c53d a03e 5e3e 3ff6 173e
000002d0: adae fdbd 3ac2 1f3d 5bc3 22be 8ba6 f9bc
000002e0: ed8a 65be 709e 9cbd ce45 7ebc 8ac7 653e
000002f0: bf31 6aba 3f75 b2bd 10f5 07be 55c0 993e
00000300: c4d6 04be 147a a2be 6570 ff3d ea45 7ebb
00000310: 1d1d 343e 341e 27be 53be 3dbe 7d02 303d
00000320: 756d 60bd d167 51be 3a64 b73d 8428 9f3d
00000330: 9f16 1a3e 0533 92bd 7a61 62be 3465 b53d
00000340: 958f c2bd d8fa b83d 23af aebe eb31 8dbd
00000350: 679c 3dbd 40d0 c93d 9a14 543e 92ef c33d
00000360: 0e44 0e3e 6800 97bc cad6 213e 915e ca3d
00000370: fb3e b5be fea7 423d 76b1 983d fb2e b73e
00000380: 2a71 0b3c c0e6 e4bd ddee fabd 7633 cb3d
00000390: 5d3d ab3e 8260 c23e 2937 ae3d 5769 823d
000003a0: 2ed1 e83d 92c7 223e ad83 c13d ec04 d53d
000003b0: 1723 9a3d 28ce 093e 8275 3a3e 4901 ccbd
000003c0: 3efa 0b3e 5b52 debd a201 183d 456d 3a3d
000003d0: a92c 23bd 1b35 dd3d fc81 133c c8c8 7ebe
000003e0: 1c97 9d3d 4802 893e 71df 9a3c 9322 19be
000003f0: a7ed 613e 9b27 873e d4c0 fe3d f6e8 f8be
0.08726891 0.09769194 0.22681235 0.17070486 0.19660991 -0.21656874 -0.1290491 0.008511379
-0.079303615 -0.18281206 -0.1118677 0.15142696 -0.17153844 -0.06918177 -0.038746152 0.529982
0.23221982 -0.06193645 -0.17764322 0.025627961 0.16085646 -0.061224654 -0.12634611 0.1289952
-0.20270212 -0.10553826 -0.17608063 -0.19756463 -0.022045568 -0.025140032 0.017896645 0.15354997
-0.03947808 -0.13291147 0.014994989 0.06482251 -0.02316539 0.116126604 -0.012793316 -0.11337782
0.15168008 -0.027026055 -0.03470044 -0.03664015 0.22213502 0.09051077 -0.22019905 -0.1828711
-0.0823475 0.14112946 0.09750401 0.16695213 -0.25013635 0.16160867 0.013008011 -0.14342158
0.030893352 0.06823764 -0.08417496 -0.097059086 -0.19896938 0.22860089 -0.06662615 -0.2384625
0.1829679 -0.32511926 0.0041897595 -0.07310384 -0.27679121 0.010517511 -0.053322252 -0.16836514
-0.17227606 -0.25513253 -0.19316125 -0.10533441 0.010160052 -0.249281 -0.050723813 0.03980683
-0.014502876 -0.010664887 0.2580063 -0.14169495 -0.12828611 -0.037266452 0.07720147 -0.19569723
-0.42479783 0.05644296 0.01831466 -0.06939567 -0.23175095 -0.061864365 -0.015382712 0.32912892
-0.036687437 -0.13574979 -0.044222806 0.49956244 -0.35877773 0.0034706187 0.008589982 0.17118967
0.19677047 0.04116489 -0.06709568 -0.118161224 -0.11246184 -0.18723468 -0.13955213 -0.083644286
0.083577625 0.023421668 -0.123784386 -0.19696666 -0.22707452 0.17346655 -0.113643564 0.0639695
-0.052636854 -0.10755482 -0.06268431 -0.05949579 -0.04540887 -0.17695808 -0.22302085 0.12421286
0.06107135 0.04029984 -0.08721765 0.122930065 -0.14768413 -0.5011177 -0.094832346 -0.11584199
-0.0017460654 -0.22735414 -0.044726677 -0.03713938 -0.10203006 -0.1310263 0.12894517 0.005121051
0.1882491 -0.049545012 0.25750014 -0.046115525 -0.35656625 -0.073939346 -0.028321924 0.047561876
-0.1903528 0.2152593 -0.13022313 0.18649462 0.036051907 -0.090816885 0.22092983 0.0583017
-0.2233146 0.21519272 0.019198002 0.057755146 0.042830016 0.02004284 0.12868932 0.0022533794
0.030827243 -0.20963827 0.08239514 0.12087952 0.041601617 0.5502096 -0.024427759 0.027842931
0.17384526 0.0965602 0.21703577 0.14840029 -0.123868324 0.03900359 -0.15894835 -0.030474922
-0.22416277 -0.07647407 -0.015519572 0.224394 -0.00089338043 -0.08713769 -0.13277078 0.3002955
-0.12972552 -0.31733763 0.124726094 -0.0038798996 0.17589231 -0.16320115 -0.18529634 0.042971123
-0.054791886 -0.20449759 0.089546636 0.077713996 0.15047692 -0.071386375 -0.22107497 0.088571936
-0.09500042 0.0903222 -0.34117994 -0.06894287 -0.046291735 0.09854174 0.20710984 0.09567179
0.13893148 -0.01843281 0.15804592 0.09881318 -0.35399613 0.04752349 0.07455723 0.3577803
0.008510867 -0.111768246 -0.12252591 0.09921925 0.33445254 0.37964255 0.08506615 0.06367748
0.11368023 0.15896443 0.09448943 0.104013294 0.07526224 0.13457549 0.18208888 -0.099611826
0.13669679 -0.10855552 0.037110932 0.045514364 -0.039837513 0.10801145 0.009003159 -0.2488128
0.076948375 0.26759553 0.018905373 -0.14954595 0.22063313 0.26397404 0.12439123 -0.48615235

net.3.bias f4 [60]
00000000: 4a9c 2038 e21a d338 3dde 3438 2d84 82b7
00000010: a521 cb36 1837 5038 a68b 50b8 74bb f839
00000020: f0e9 27b8 63cd 92b4 ba0a 01b9 0c71 72b8
00000030: ff17 1e37 9d08 0b37 b76a 9a38 74ca 9fb7
00000040: 1516 be37 7d2b c5b8 1e43 eb37 efdb 9c36
00000050: 3822 b0b8 f347 f938 c59e 50b8 a6d7 0c39
00000060: 00ec a6b7 f396 ea38 8f95 a538 b475 2136
00000070: b3f2 a2b6 c78d 87b8 bfb6 9d37 2142 bbb7
00000080: 09af a138 6c0d e2b8 9104 c437 8615 f237
00000090: f377 52b8 1559 ab35 1037 7c38 8194 de38
000000a0: e780 c2b7 1463 b538 783b 8136 bc87 b5b8
000000b0: ba77 ebb8 84ee eb38 4fff 4bb8 47e6 3ab9
000000c0: b42a 22b8 6706 e9b6 85e4 8638 3dfd 4db8
000000d0: 13fa 0138 a9a0 39b8 571c bfb8 d1d7 d337
000000e0: 3e54 55b8 3232 1939 502e b7b8 03ba e0b8
3.829253e-05 0.00010066271 4.312232e-05 -1.5558757e-05 6.053788e-06 4.9642375e-05 -4.9721122e-05 0.0004744191
-4.0033774e-05 -2.7344058e-07 -0.00012306395 -5.780258e-05 9.423121e-06 8.287051e-06 7.3631694e-05 -1.9048552e-05
2.2660048e-05 -9.401792e-05 2.8045437e-05 4.674766e-06 -8.398708e-05 0.00011886647 -4.973893e-05 0.00013431776
-1.9898638e-05 0.00011186106 7.8956706e-05 2.4059382e-06 -4.85623e-06 -6.46371e-05 1.8800956e-05 -2.232293e-05
7.709681e-05 -0.0001077902 2.3367147e-05 2.885867e-05 -5.0179613e-05 1.2766419e-06 6.0132763e-05 0.00010613446
-2.3186627e-05 8.649207e-05 3.8514227e-06 -8.656035e-05 -0.00011227974 0.000112501 -4.8636746e-05 -0.00017824127
-3.866358e-05 -6.9446864e-06 6.432183e-05 -4.9111655e-05 3.0988896e-05 -4.4257064e-05 -9.1128684e-05 2.5253657e-05
-5.0861614e-05 0.00014609916 -8.7347464e-05 -0.000107158

net.4.weight f4 [60]
00000000: 6ad4 cd3f f8c4 4d40 e37c c83f 3c0a d53f
00000010: 017e b23f dd67 0d40 83be 5040 0ce2 fa3f
00000020: 93b8 7b3f 3304 dc3f 3ad4 de3f cf9c fd3f
00000030: 1617 a13f 8bed f63f 7904 d23f c18e 0d40
00000040: ecc6 d43f 6e0b 3040 cca7 d23f e9be 8d3f
00000050: 4aab 1b40 2b2f 3140 ba56 e63f 5883 c93f
00000060: ea15 1240 c6b2 b03f b470 cb3f f550 0440
00000070: fa5a 693f 51b4 8240 591c 0840 5ef1 743f
00000080: 0177 8e3f 4900 1540 f148 1e40 eb15 ad3f
00000090: af29 c63f 80fd cb3f 8d02 5d40 e688 3440
000000a0: 2719 1d40 437d 8540 180b 1a40 e062 f73f
000000b0: 69bd d83f e14a 0840 f111 c93f 394b bf3f
000000c0: e856 f03f 1cc7 d33f a369 bb3f ec4a d53f
000000d0: df14 8c3f 0d0b 9b3f f613 e83f 446b ce3f
000000e0: 32ba 8540 7627 d73f b83d 0540 e042 c13f
1.6080449 3.215147 1.5663112 1.6643748 1.3944703 2.2094643 3.261628 1.9600234
0.9832851 1.7188781 1.7408516 1.9813479 1.258517 1.9291242 1.6407615 2.211838
1.6623206 2.7506976 1.6457458 1.1073886 2.4323297 2.768504 1.7995217 1.5743208
2.2825875 1.3804557 1.5893769 2.0674412 0.91154444 4.0845113 2.1267302 0.956808
1.1130067 2.3281424 2.473202 1.3522314 1.5481471 1.5936737 3.4532807 2.8208556
2.4546602 4.1715407 2.406927 1.9327049 1.6932803 2.1295702 1.57086 1.4944831
1.8776522 1.6545138 1.4641613 1.6663489 1.0943869 1.2112747 1.8131092 1.6126485
4.178979 1.6808918 2.081892 1.5098534

net.4.bias f4 [60]
00000000: 767f 10bf 135b c93e 6638 73be 2854 51be
00000010: ce4e aabe f747 a23f b2c1 f6be 145a c73f
00000020: aeca 5cbf 2d51 c93e 0877 823e 095d 27bd
00000030: d1db 8bbd 5bb1 1f3f 1b36 6abf cd05 f8be
00000040: 28a7 603f 6f0d 49bf 4f2f 75bf 8811 f33d
00000050: 4f80 133f de17 14bf 3c27 8e3c 0d26 5cbf
00000060: 6e55 d33e b8a7 d2bf fcae 833f d83f 88bf
00000070: 4bf3 87bf 1dac 453e 770c 213f e05f 993e
00000080: 6340 b43f c3eb f83d cc5c 463f 8062 0abf
00000090: 96e6 42bd 78c2 733f 72e2 2b3f 9914 c3bd
000000a0: ed33 0b3f bf72 3e3f 4b65 14be 7ddd 953d
000000b0: 755e 793d 249f 343f f459 7c3f c728 8d3f
000000c0: 4cc1 403f 5609 683e db2a e7be 177b 6d3e
000000d0: 8b91 f8be 3af8 a03f 34cb 583f 8668 653d
000000e0: 25b1 d13f 86da 9cbf 2351 c33e 5439 bf3f
-0.5644449 0.39327297 -0.23751983 -0.2044226 -0.33263248 1.2678212 -0.48194653 1.5574365
-0.86246765 0.39319745 0.2548144 -0.04086021 -0.06829036 0.6238 -0.9148881 -0.48441926
0.8775506 -0.78536123 -0.9577531 0.11868578 0.5761766 -0.5784892 0.017352693 -0.8599556
0.41276115 -1.6457434 1.0287776 -1.0644484 -1.0621122 0.19303937 0.62909645 0.2995596
1.4082149 0.12154343 0.77485347 -0.5405655 -0.047583185 0.9521861 0.67142403 -0.09525413
0.5437611 0.7439384 -0.14491765 0.07317636 0.060881097 0.7055533 0.9857476 1.1028069
0.7529495 0.22659811 -0.45149884 0.23191486 -0.4854854 1.2575753 0.84685063 0.056007884
1.6382185 -1.2254188 0.3814784 1.493937

net.4.running_mean f4 [60]
00000000: d053 abbe 45e8 233f baeb a83f 8e7d d13e
00000010: b3ed 513f 9605 7dbe ad67 f5be e252 943f
00000020: 7949 5bbd 4524 4fbe 663d bc3e 89c7 eb3d
00000030: 6d41 f33e 2961 16bd f400 81be 2d13 b3bd
00000040: 3f7c 913e 9602 203e eeea 2b3e 1ea3 663f
00000050: 8825 1c3d 4150 5bbe 5e7f d73e 3368 a9be
00000060: 9dd5 ddbe 8cab cfbf 4feb 86be 1ed3 6abf
00000070: bdda 1abe 1307 8cbe 4ad0 283f 40eb 97bd
00000080: b65f 6e3d 7f8f 15be 600e 243e 2b9f 95bc
00000090: 6685 1dbf f677 f93e 77c1 cb3e 365c 983d
000000a0: 9405 9f3d 5548 353d 7aa2 11bd dd05 7e3e
000000b0: 8e71 c0be 8986 06bf c005 243f 7b12 e43f
000000c0: f5f4 243f 04de d33e 435d 83be 889c ce3d
000000d0: 58ce e5be ffa9 8c3e 03f0 bb3f d172 5c3e
000000e0: d8e3 593f e2a9 c8bf 62f9 20bf 1205 0c40
-0.3346238 0.6402629 1.3196938 0.40916103 0.82003325 -0.24709162 -0.4793066 1.1587794
-0.053536866 -0.2022868 0.36765593 0.11512668 0.47510853 -0.036713753 -0.2519604 -0.08743892
0.28415105 0.15625986 0.16788837 0.9009265 0.03812173 -0.21417333 0.4208936 -0.3308731
-0.43327036 -1.6224227 -0.263514 -0.9172839 -0.15122505 -0.27349147 0.65942824 -0.07417917
0.058196746 -0.1460552 0.16021109 -0.018264374 -0.61531675 0.48724335 0.3979604 0.07439463
0.07764736 0.044258434 -0.03555534 0.24806924 -0.37586635 -0.52549034 0.64071274 1.781814
0.64436275 0.41380322 -0.2565709 0.1008845 -0.4488399 0.27473447 1.4682621 0.21528174
0.85113287 -1.5676844 -0.6288053 2.1878095

net.4.running_var f4 [60]
00000000: 23f5 713e 7129 7e3e 65c6 963e 4310 383f
00000010: d346 393e d07f 383e 127e bd3d 052c f43e
00000020: e087 343e e462 863e c2b8 d43d 92e5 4d3e
00000030: d643 3c3e 826c e13d 6de1 c43d 6d22 343e
00000040: 7c7f 353e 29f1 fa3d 3352 fb3d bf3b 3e3e
00000050: e611 093e 2069 373e 8da1 1a3e 8163 9b3d
00000060: 493d 313e 0f5a e93e e73b 9b3d 2510 023f
00000070: 0a58 0e3e ce9e 0a3e d097 a53e 0fff 303e
00000080: 7ad6 1d3e ad56 7e3e 89e3 343e b1b6 563e
00000090: 48f2 4b3e 0d59 f83d d4bd 073e 1909 303e
000000a0: 8a7d 233e 0a8c ac3d fcd4 093e d801 d63e
000000b0: e9d1 a73e 5cfd ff3d 9c37 a63e 6b4b 773f
000000c0: 4e7c b63d a410 aa3d 3c05 e13d ffd1 9d3f
000000d0: 9219 7e3f f94f fa3d 9543 2f3f a4b4 363e
000000e0: 0cb4 373e f349 793f 2989 083e 755c 763f
0.23628668 0.24820496 0.29448238 0.71899813 0.18093424 0.18017507 0.09252562 0.47689834
0.17629957 0.26247323 0.10386802 0.20107105 0.18385252 0.11007024 0.09613309 0.17591257
0.17724413 0.12253029 0.12271538 0.18577479 0.13385734 0.17911196 0.15100689 0.07587338
0.17308535 0.45576522 0.07579785 0.50805885 0.13900772 0.13537142 0.32342386 0.17284797
0.15413848 0.24837752 0.17664923 0.20968129 0.19916642 0.1212636 0.13256007 0.1719097
0.15965858 0.08425148 0.13460153 0.41798282 0.32777336 0.12499496 0.32464302 0.96599454
0.08910428 0.08303955 0.109873265 1.2329711 0.9925777 0.12222285 0.68462497 0.17842346
0.17939776 0.9737846 0.13333572 0.9623483

net.6.weight f4 [60, 60]
00000000: 49e3 4ebd e015 963e a109 50be a1da 7cbc
00000010: 9fbe b83c 32c9 9c3e 28d4 9f3d efaa c4bd
00000020: 168c e53c 7fa6 9abe 20c9 5e3e f9f6 8fbd
00000030: af7f 01bc 6b85 583d a22f de3d 316d 4c3e
00000040: 8f31 30be 806f 353e adec 753e 6e96 c23d
00000050: d979 4e3c 4953 823d 3ad9 44bb 613b 1dbe
00000060: 9dc6 033d 0d48 d3bd 39ad b93c bf2d 3f3e
00000070: a36d 56bd 03b5 263e d5a2 173e 4655 d93d
00000080: 10b3 30bd c1da 783e 1851 153e 023d fabb
00000090: 12dc 97bd b232 8f3d b948 bb3e f566 03be
000000a0: 6909 29be 4298 583e 2054 77bc b598 38be
000000b0: 2987 82bd 901f ebbd 8bf1 1e3d 4ee4 33be
000000c0: e4ae 70bd bd51 a6bc af9d f03d caa9 0bbe
000000d0: 0cb9 c03d 964a b13e 3976 69bc dfc0 a0bc
000000e0: 251c b3be d866 d5bd d500 7abe 606b 063d
000000f0: 34b7 7b3d 7038 a23e 3afb e1bd c818 5f3d
00000100: 5b89 f9bc 1ab4 6e3c 61df 893e e0c4 80be
00000110: cd1c 9c3d bdec 973e 97ec 063e 9251 273e
00000120: 9574 8c3e 25be d5bd 398e 19bd 29ed c93d
00000130: 28cf 62bc 86d3 46bd 2a02 21bc 8423 e1bd
00000140: f915 90bd c20b 873e f93e c63d aed4 b9bd
00000150: e3e7 f7bc defa 59be e911 3cbd c1c6 7f3d
00000160: 0c2c dbbd 727e 873d d99b 5fbe 89e8 7d3d
00000170: cd9c 083d 967b 323e ba8b 183c 180f cf3d
00000180: 8d8f 26be aaf6 b0bd 233d c53c 48b0 b5bc
00000190: c741 99bd 1c5c febd c617 663b 89e2 b33e
000001a0: 2915 c03c c9e2 12be 162f 993e daa3 98be
000001b0: fc93 f1bd b4a7 8c3d f5e4 4d3d 91e8 3abe
000001c0: 3a7c 7fbd 45b8 193e 96f6 743e bf57 e23d
000001d0: 4438 08bf d9e9 6dbe 4198 843d 797d 973e
000001e0: 48ee 60bc 16c1 053d 1ea7 073e e58a 483d
000001f0: 0dc3 ac3d 55cf c83c 189c 97be 97f1 7cbc
00000200: c378 643e fbd7 c9bd d52a 073e fb1c 3cbe
00000210: 79b0 ef3d 1c1a b53d c0dc 01bd 5db0 7e3c
00000220: fb30 603d 3ece 883d 640e 823c acce c6bd
00000230: 62aa 163c f2ca 8f3d c972 233e f2a6 f13e
00000240: a32c de3d 6163 16be ff4c 363e 27e7 44be
00000250: f115 f6bd 748f 023e dd86 94bd 22cc fbbd
00000260: 133e a8bd d249 763e 1c2a 51bd 9c82 883e
00000270: 76e4 6e3c 5a78 1e3e 6c37 733e 511f 0cbd
00000280: 639a c5bd 0ae2 6a3d 8398 663b ed79 39bd
00000290: b6bc 31be b580 a4bc a580 b5bc 985a 573b
000002a0: 499e 85be 2d2e 9c3d be02 443c 9eb1 783e
000002b0: f2bc 763e 5775 963b 8167 0cbe 5764 9b3e
000002c0: 730b e43d e814 143e b4ff ac3e 758f 0cbe
000002d0: aa8e 9f3d a23f e6bd 42f1 3e3d eadf a4bd
000002e0: f77d 0b3e a111 d3bd 82ba 6e3e 48a7 cb3d
000002f0: 4ad5 89bd fb7b f73c a19b ad3b 35b7 7ebe
00000300: 72b7 113e e2fa 43be 8ef0 1d3e 824d cf3e
00000310: ef31 453d 8c83 be3c b592 7fbd bf02 053d
00000320: 8f99 ee3d ed8c b93c 4763 193d 62b3 93be
00000330: 6069 053e af8a e4bc f5b0 0e3e 617d 733d
00000340: f23e 34be 9242 46bd 0449 70be 5463 65bd
00000350: c381 c6be 59a2 1abe b07b b3be 16de 9abd
00000360: 8022 d53d b423 c3bd ca20 a1be f885 59be
00000370: e24c ab3e 43af 87bd 8f7c 393e 2c23 d1bd
00000380: f98c ae3d 8778 6bbd 1019 06bb f55a 653e
00000390: 0d20 50be e311 483e fdf7 aabd 202b 093e
000003a0: 86c8 5abd 14aa d03d 9823 a7be 8e53 b73e
000003b0: 0246 8a3e e1b4 4f3e e445 c73d d768 b6bd
000003c0: ebc7 1d3d bcd1 793e 90e6 26be 0565 2f3e
000003d0: de91 4d39 3d75 6e3d 0a44 67be dffd 06be
000003e0: 8669 78be 1aa0 9fbe 3e6c b3bd 7b21 a6bd
000003f0: 3447 fdbd 3a04 243e c7b6 2bbe 2db4 a4bc
-0.050509725 0.29313564 -0.20316173 -0.015432985 0.022551833 0.3062225 0.078041375 -0.096029155
0.0280209 -0.3020515 0.2175641 -0.07029528 -0.007903977 0.052861612 0.10848929 0.19963528
-0.17206405 0.17718315 0.24016066 0.095013484 0.012602293 0.06363542 -0.0030036704 -0.15354683
0.032171834 -0.10316477 0.022665607 0.18669794 -0.05235065 0.16279988 0.14808209 0.10611968
-0.043139517 0.24302198 0.14581716 -0.007636667 -0.07415022 0.06992091 0.3657892 -0.12832244
-0.16507496 0.21151832 -0.015095741 -0.18027003 -0.06373436 -0.114806294 0.038804572 -0.1756756
-0.05876054 -0.020302648 0.11748826 -0.13638988 0.09410295 0.34627217 -0.014249378 -0.019623218
-0.3498241 -0.104200065 -0.2441438 0.032817245 0.061454013 0.31683683 -0.11034246 0.054466993
-0.030461004 0.014569307 0.26928237 -0.25150204 0.07622681 0.29672804 0.1317619 0.1633971
0.27432695 -0.10436658 -0.03748915 0.09859688 -0.013843335 -0.04854157 -0.009827176 -0.10993102
-0.07035441 0.26376158 0.0967998 -0.090737686 -0.03026194 -0.21287104 -0.045915518 0.062445406
-0.10701761 0.066159144 -0.21836795 0.06198934 0.033352662 0.17429957 0.009310657 0.10110301
-0.16265698 -0.086407974 0.024077004 -0.022178784 -0.07483249 -0.12419912 0.0035109385 0.3513377
0.02344759 -0.14344324 0.29918736 -0.2981251 -0.11795804 0.06867924 0.05026718 -0.1825278
-0.06237433 0.150117 0.2392219 0.110518925 -0.53210855 -0.23233737 0.06474353 0.29587916
-0.013728686 0.032654844 0.13247344 0.048960585 0.084356405 0.024512926 -0.29611278 -0.015438459
0.22311692 -0.09855648 0.13199933 -0.1837043 0.11703581 0.088428706 -0.031704664 0.015544978
0.05473421 0.066799626 0.015876003 -0.09707388 0.009195896 0.070211306 0.15961756 0.47197682
0.108483575 -0.14686348 0.17802809 -0.19228803 -0.12015904 0.12750036 -0.07252286 -0.122947946
-0.08214965 0.24051598 -0.05106555 0.26662147 0.0145808365 0.15475598 0.2375161 -0.034209553
-0.096485876 0.057344474 0.003518612 -0.045282293 -0.17357144 -0.020080904 -0.022156069 0.0032860395
-0.26097324 0.07625995 0.011963544 0.24286506 0.24095514 0.0045916247 -0.13711359 0.3034999
0.11134996 0.144611 0.33788836 -0.137266 0.07790883 -0.11242606 0.0466168 -0.08050521
0.1362227 -0.10306097 0.23313335 0.09944016 -0.06730135 0.030210486 0.0052980934 -0.24874575
0.14230135 -0.19138673 0.15423796 0.4048882 0.048143324 0.023256086 -0.06239577 0.032473322
0.11650383 0.022650206 0.037448194 -0.28847796 0.13028479 -0.02789816 0.13934691 0.059445743
-0.17602137 -0.04840333 -0.23465353 -0.05600293 -0.38770875 -0.15100993 -0.35055304 -0.07561891
0.10406971 -0.09528294 -0.3147033 -0.21242511 0.33457094 -0.066252254 0.18113922 -0.10211787
0.08522982 -0.05748799 -0.0020461716 0.22397979 -0.20324726 0.19538073 -0.08348081 0.13395357
-0.05341389 0.1018869 -0.32644343 0.35805935 0.27006537 0.20283844 0.097301275 -0.08906715
0.038520735 0.24396414 -0.1629889 0.1712838 0.00019604663 0.058217276 -0.22584549 -0.13182782
-0.24259004 -0.31176835 -0.0876088 -0.08111855 -0.123670965 0.16017237 -0.16768943 -0.020105446

net.6.bias f4 [60]
00000000: 1df9 db37 a9a8 84b9 f3d4 62b7 7454 27b7
00000010: 2190 9ab6 bf40 8637 0158 8fb7 c632 53b8
00000020: 20d5 8137 c953 43b8 5a04 7238 22b0 d9b7
00000030: 8d83 e6b7 875c cab7 f041 67b7 ed0c ee37
00000040: 5a14 42b7 5b8c fc37 f9f9 07b8 7f0b 6237
00000050: f06c e137 cfcf 6e37 1e0e 12b7 718d 0c00
00000060: b4fc 0580 5e54 1938 8c87 2738 80d9 a937
00000070: e741 07b6 c78e 0280 6e05 aab7 c9b4 4938
00000080: 3a61 53b5 5792 8d37 aa8d 0138 43c9 0f39
00000090: a734 80b8 4e5b cfb7 9430 2438 f1cb d638
000000a0: 310f 0fb8 0db9 d638 e659 9bb6 2e35 2ab9
000000b0: 3a90 2638 149e 1ab7 5dbd 4238 8534 0a37
000000c0: ef1a 9fb8 4ebe 7338 d14e 1138 9bb7 bdb7
000000d0: 37a9 a037 32ca 0380 0fb9 e837 ff26 5438
000000e0: 287e 00b7 c655 16b7 c864 ebb7 d05f 8435
2.6222837e-05 -0.00025302664 -1.3520231e-05 -9.973639e-06 -4.6063365e-06 1.6004195e-05 -1.7087908e-05 -5.0353607e-05
1.5477242e-05 -4.6569654e-05 5.770135e-05 -2.5950434e-05 -2.7479395e-05 -2.4123363e-05 -1.3784025e-05 2.837783e-05
-1.156804e-05 3.0106099e-05 -3.2419313e-05 1.3473326e-05 2.6872818e-05 1.423429e-05 -8.705565e-06 1.152766e-39
-5.4983e-40 3.6556616e-05 3.994214e-05 2.0247651e-05 -2.0154928e-06 -2.3489e-40 -2.0268108e-05 4.8090504e-05
-7.874511e-07 1.6876655e-05 3.088793e-05 0.00013712519 -6.113323e-05 -2.471884e-05 3.914589e-05 0.00010242302
-3.4108005e-05 0.000102387836 -4.6298255e-06 -0.00016232274 3.9711806e-05 -9.215921e-06 4.6429563e-05 8.237669e-06
-7.5867276e-05 5.811295e-05 3.4644097e-05 -2.2616054e-05 1.9152283e-05 -3.4804e-40 2.774273e-05 5.0581057e-05
-7.658768e-06 -8.960667e-06 -2.8061113e-05 9.862651e-07

net.7.weight f4 [60]
00000000: 8545 1c40 eaf0 b73f 5baf 3140 cab4 7c40
00000010: b074 e23f f888 2a40 d4c7 0840 9ba6 e83f
00000020: bd44 1240 f892 3240 e0a1 d83f 2535 cc3f
00000030: 759f 1240 554c e53f 16ff fd3f 5e5e d73f
00000040: da0f eb3f 7e97 d13f b8e3 1f40 8bb4 cf3f
00000050: 905a 2e40 28a2 e83f 541d 0840 d8de 0580
00000060: 985d 0500 8329 1340 7b82 fe3f da6f 1d40
00000070: 8b3d f13f 9e58 0580 9990 ff3f feab 2340
00000080: e30b 0340 2fee ef3f c5df 1540 a6a6 1f40
00000090: 0d62 d13f 065f 0340 bef4 1240 c239 0f40
000000a0: 3399 2140 ec15 0e40 6724 b83f 1078 1c40
000000b0: 2a83 e03f d03d 0a40 bff5 da3f 55e1 ff3f
000000c0: ba51 0840 d802 0840 2952 2d40 d503 3240
000000d0: be12 2240 855c 0580 2c42 0140 9347 d83f
000000e0: 0271 bd3f 7838 0c40 a535 1f40 0b63 1640
2.4417431 1.4370396 2.7763278 3.9485345 1.769186 2.66461 2.1371965 1.8175844
2.2854455 2.7902203 1.69244 1.5953718 2.2909825 1.791392 1.9843471 1.6825674
1.8364213 1.6374357 2.4982738 1.6226972 2.7242775 1.8174486 2.12679 -5.39119e-40
4.92753e-40 2.2994087 1.988357 2.4599519 1.8846906 -4.90967e-40 1.9966003 2.5573726
2.0476005 1.8744563 2.3417828 2.4945464 1.6358048 2.0526748 2.2961879 2.2379003
2.5249755 2.220088 1.4386109 2.444828 1.7540028 2.1600227 1.7106246 1.9990641
2.1299882 2.1251736 2.7081397 2.781484 2.532394 -4.92367e-40 2.0196638 1.6896843
1.4800112 2.1909466 2.4876492 2.349795

net.7.bias f4 [60]
00000000: 75b4 883e 07a8 863e 6593 d33d 1dd4 6e3e
00000010: f381 873d f22f 96be f7ca bbbd 2249 e63d
00000020: 3660 b7be fa1b 92be 27b6 c73e 62ad a8bf
00000030: 05e0 d6bd 28bd cbbe 4289 063f 59f0 c23e
00000040: 097d d5bd cb06 b5bd 21b8 5e3d 691b 163e
00000050: 855a 263c a47f 36bf 79f9 0f3d 1f4f 95ab
00000060: 9290 602d 1637 f1be b548 d9be f60d c4be
00000070: 61eb fcbd 32cb 8085 9793 ad3e a59a c93e
00000080: ccde 6ebe 74c7 d83e ceeb 63bc ea98 3b3c
00000090: 0d71 9c3e 1e97 06be 1806 29bf 9973 583e
000000a0: 6f2f debe a5ec 1cbd 1866 663e 65ad 94be
000000b0: 4ae1 f9bd 9428 fdbc e292 84bd fce0 b63f
000000c0: c98b fa3e 8780 c5bd 1b9c d53e 9850 2abe
000000d0: c472 b13e 9f77 fb0f 0c5c 81bb 3abb babe
000000e0: 485d 0bbf b486 14bf 1792 afbe 5130 40be
0.26700178 0.2630007 0.10330848 0.23323102 0.06616583 -0.29333454 -0.09169572 0.11244418
-0.3581559 -0.2853697 0.3900616 -1.3177912 -0.10491947 -0.39792752 0.5255319 0.38073996
-0.10424239 -0.08839186 0.054374818 0.14658894 0.0101534175 -0.71288514 0.035150025 -1.0609047e-12
1.2765027e-11 -0.4711234 -0.42438284 -0.382919 -0.123495825 -1.2111704e-35 0.33901665 0.39375797
-0.23327178 0.4233967 -0.013911201 0.011450032 0.30555 -0.13143584 -0.66024923 0.21137847
-0.43395564 -0.03831162 0.22499883 -0.2903854 -0.122011736 -0.030903138 -0.06473328 1.428741
0.48934773 -0.09643655 0.41720662 -0.16632307 0.34657872 2.4796587e-29 -0.0039477404 -0.36470968
-0.5443921 -0.5801804 -0.34291145 -0.18768431

net.7.running_mean f4 [60]
00000000: 7e6e d63b 5955 3d3d 8dcf 3abe 20cd babe
00000010: 847d 1c3e 0da1 09bd a523 043e 4205 c73e
00000020: fcfb a5be 42a6 bebe 2604 0cbf 6975 31bf
00000030: 5c65 33be 87b1 efbe 4af7 703f ff2c 613f
00000040: f760 233f d298 343f 7d07 f53e 4d9b 723f
00000050: 1ee4 b7bd bf38 493e c353 0b3f 0542 0980
00000060: df81 0c00 43c4 26be a740 2fbe 56b6 5f3e
00000070: e773 93bd 31bb 1580 db83 83be d35f c7be
00000080: d0d6 39bf 6f3f 2a3f 91ba 0ebe d084 443c
00000090: bede 3a3f ea46 e23e e05e 9a3d 240d 573e
000000a0: 579b f4be 4d5b 903e 70e9 21be 3fa4 8cbe
000000b0: 760e 73bf 2a0e 84bd 457b cabd cb95 243f
000000c0: d30a 073f 4efa 843c 79a5 abbe 0e6e 31bf
000000d0: 9e28 443f df1a 0f80 1595 a43d 2bb5 013d
000000e0: 5bd2 e1be b90c 38bf ca3b d0be 82ef 0dbf
0.0065439334 0.046223972 -0.18243237 -0.36484623 0.15282255 -0.033600856 0.12904222 0.388712
-0.3241881 -0.3723622 -0.5469383 -0.6931978 -0.17519134 -0.4681513 0.94127333 0.87959284
0.6381983 0.70545685 0.47857276 0.9476822 -0.08979057 0.19650553 0.54424685 -8.50203e-40
1.148615e-39 -0.16285805 -0.17114507 0.218469 -0.07199841 -1.995697e-39 -0.25686535 -0.38940296
-0.725934 0.6650304 -0.13938357 0.011994556 0.7299613 0.44194728 0.07537627 0.21001107
-0.47774765 0.28194657 -0.15811706 -0.2746906 -0.9494394 -0.06448014 -0.09886793 0.64291066
0.5275089 0.016232636 -0.33524683 -0.69308555 0.76624477 -1.387172e-39 0.08036248 0.031666916
-0.441058 -0.71894413 -0.40670615 -0.55443585

net.7.running_var f4 [60]
00000000: 07ee 2c3f 2643 003f 95aa ec3e 080b 213f
00000010: abb5 6e3f 9396 203f da17 e73e bd95 703f
00000020: 8caf 823f 3758 a23e a692 0f3f d5ce 3e3f
00000030: dcc0 ac3e 4849 143f 62d3 3e3f bd41 8c3f
00000040: a295 2340 5348 a13f 21cd fe3e 9453 653f
00000050: 07e6 f53e 7179 c03e 6348 bf3f 0400 0000
00000060: 0400 0000 2f52 eb3e 64c9 823f 8f99 093f
00000070: 473d 863f 0400 0000 1cd5 053f 522f 003f
00000080: 9239 bf3e c7e2 0f3f cb35 eb3e b213 fc3e
00000090: 339a e93e acd9 2a3f 4561 c63e 95fa ad3e
000000a0: 3afe 603f 4cf3 413f a06f 983e 0290 213f
000000b0: 00a2 963e d29a 4b3f b223 d83e 42d3 273f
000000c0: 7ea6 ea3e 06f5 213f e853 bc3e 1202 0e3f
000000d0: 13a5 c53e 0400 0000 ceaa 7c3e a69f 3c3f
000000e0: 1e9e 8c3f 8d4c 413f 7319 da3e 61d9 4a3f
0.675507 0.5010246 0.46223894 0.6290746 0.93245953 0.6272976 0.45135385 0.9397848
1.0209823 0.31707928 0.5608314 0.7453435 0.3374089 0.5792432 0.74541295 1.0957562
2.5560079 1.2600197 0.49765876 0.89580655 0.4802706 0.37592652 1.4943966 6e-45
6e-45 0.4596114 1.021771 0.53749937 1.048745 6e-45 0.52278304 0.50072205
0.3734861 0.5620541 0.45939478 0.49233776 0.45625457 0.6673839 0.38746086 0.3398024
0.8788792 0.75761867 0.29772663 0.63110363 0.2942047 0.7953311 0.42214733 0.6555673
0.45830148 0.632645 0.36782765 0.5547191 0.38602504 6e-45 0.24674532 0.73681104
1.0985754 0.7550743 0.4259754 0.79237944

net.9.weight f4 [1, 60]
00000000: 2acb b63e 9422 e8be 12c1 12be 14ba bbbe
00000010: aacb 293e 2806 9d3e b364 573e 2be8 6f3e
00000020: 31b9 ba3e 13c1 5cbe 3e3c 243e 134f 953e
00000030: f667 1b3e 320a 5cbe 9dd9 653e eeb6 83be
00000040: 850f c0be fffb 5fbe b374 6bbe 0ecd 87be
00000050: 879c 893e 5436 353e 664e a6be 2fed cc2a
00000060: 46da f62c b1a7 50be b6d3 95be c2f1 80be
00000070: 2ad1 86be 8511 ed02 75e5 423e 8ace c13e
00000080: 5ddf 19be 03ee 2abe 150a 1bbe 7f0d f4be
00000090: 9bec 093e 4660 4f3e 1659 22be b742 1b3e
000000a0: e895 a2be f7e0 8b3e 991f d4bd 93c0 0ebf
000000b0: dab9 303e 294c a9be bc2f 163e 2390 9c3e
000000c0: 16eb b7be f9e5 a2be 0c67 28be 5a60 4f3e
000000d0: 75b8 763e f138 3f8e 035a 1bbe 9e15 63be
000000e0: e553 9bbe e6c1 84be 5847 cbbe 453f 68be
0.35701877 -0.4533888 -0.14331463 -0.36665404 0.16581598 0.3066876 0.21034507 0.23428409
0.36469415 -0.21558027 0.16038606 0.2916189 0.15176377 -0.21488264 0.22446294 -0.25725502
-0.3751184 -0.21873473 -0.22993736 -0.26523632 0.26877233 0.17696506 -0.32481688 3.640226e-13
7.0159737e-12 -0.20376469 -0.29263085 -0.25184447 -0.26331455 3.4834076e-37 0.19032843 0.3785289
-0.15026613 -0.16692357 -0.15140565 -0.47666547 0.13469164 0.20251569 -0.15854296 0.15162168
-0.31754994 0.27320072 -0.10357589 -0.55762595 0.17258397 -0.33065918 0.14666647 0.30578718
-0.35921544 -0.3181608 -0.1644556 0.20251599 0.24093802 -2.3569984e-30 -0.15171055 -0.22176215
-0.30337444 -0.25929183 -0.39702868 -0.22680385
