0705optimize/pinn_run_20250705-213506_train_sampled_6000.csv_Dmax_norm.pth (torch, 47409 bytes, 19 tensors)

net.0.weight f4 [60, 8]
0	0xbe6d6a7a	-0.23185149
1	0x3e5dc8ce	0.21658632
2	0xbf05701f	-0.5212421
3	0xbe585f2d	-0.21130057
4	0xbe03c69e	-0.12868735
5	0xbdd58962	-0.10426594
6	0xbddb2b25	-0.107015885
7	0x3df75edd	0.120786406
8	0xbe404008	-0.18774426
9	0x3e18fdf6	0.14940628
10	0xbd14ae40	-0.03629899
11	0x3d888dda	0.06667681
12	0xbc9fb872	-0.01949713
13	0x3ed6d6ff	0.41960904
14	0xbef14a8d	-0.4712719
15	0xbdea77be	-0.1144862
16	0x3e93cbe0	0.28866482
17	0x3e35fd1e	0.17772338
18	0x3e1216db	0.14266531
19	0xbebd1e78	-0.36937308
20	0x3edafa97	0.4276931
21	0x3df16489	0.11786754
22	0x3db832e0	0.08994079
23	0x3cb495dc	0.022044115
24	0xbea353f7	-0.31899998
25	0x3e42af7a	0.19012251
26	0xbe194914	-0.14969283
27	0xbe9f4425	-0.31106678
28	0xbeef696d	-0.4676012
29	0x3cd5e038	0.026107892
30	0x3b48d3b0	0.0030643754
31	0xbea36f44	-0.31920826
32	0x3f37d04e	0.7180222
33	0xbde299a5	-0.110644616
34	0xbe6eddd2	-0.23326805
35	0xbd3191b5	-0.043351848
36	0xbd427e3e	-0.047483675
37	0x3d43bb1b	0.04778586
38	0x3dab4a38	0.083637655
39	0x3d94b7a4	0.07261589
40	0xbdc93155	-0.098238625
41	0x3e4cb8be	0.19992349
42	0xbeba142a	-0.3634351
43	0xbef0b522	-0.47013193
44	0xbd9ec532	-0.07752456
45	0xbe2d23b5	-0.16908152
46	0xbd840715	-0.06446663
47	0x3e84aeb8	0.2591455
48	0xbe48580a	-0.19564834
49	0xbec2783c	-0.37982357
50	0xbeb76188	-0.35816598
51	0xbe4891b1	-0.19586827
52	0x3eff068e	0.49809688
53	0x3ce06864	0.027393527
54	0x3d6616cc	0.056174085
55	0x3da2e9b1	0.07954729
56	0xbf494d2b	-0.78633374
57	0x3d72ffc6	0.059325956
58	0xbe098410	-0.13429284
59	0x3b78c24f	0.0037957614
60	0xbe4768f8	-0.19473636
61	0xbd919870	-0.07109153
62	0xb8f9486e	-0.00011886736
63	0x3d92ccb3	0.071679495
64	0x3d095d45	0.033536214
65	0xbe09b1f2	-0.13446787
66	0xbe9f36da	-0.31096536
67	0x3e7e8d45	0.24858578
68	0xbf269874	-0.65076375
69	0xbdd51e23	-0.10406139
70	0xbd2a20d5	-0.041535217
71	0x3dd25f96	0.10272138
72	0x3d7d6f64	0.06187381
73	0xbc86b1b5	-0.01644216
74	0xbd5ed4ea	-0.05440227
75	0xbe028a63	-0.12748103
76	0x3f27aeb5	0.65500957
77	0x3dbc7956	0.092028305
78	0x3da8b2f6	0.08237259
79	0xbdb71317	-0.08939188
80	0xba3d2481	-0.00072152173
81	0xbd2c0cad	-0.042004276
82	0x3e407284	0.18793684
83	0xbea45862	-0.3209868
84	0xbbf0bbeb	-0.0073466203
85	0x3eb79b6c	0.35860765
86	0x3dfaf268	0.122532666
87	0xbdc58556	-0.096445724
88	0x3da01498	0.07816428
89	0xbe8b2e40	-0.27183723
90	0xbd0000c9	-0.03125075
91	0xbeaf1017	-0.34191963
92	0x3e7fac84	0.24968153
93	0x3dfe613a	0.12420888
94	0x3ed88648	0.42289948
95	0x3ebe550c	0.3717426
96	0x3e50c08b	0.2038595
97	0x3f05eb0f	0.52311796
98	0xbe727331	-0.23676755
99	0xbe7f1a0e	-0.24912283
100	0xbdac7a7f	-0.08421802
101	0xbe3e0b46	-0.18558988
102	0xbdd399fa	-0.10332103
103	0x3adb809d	0.0016746704
104	0xbe860a6a	-0.2617982
105	0x3eb929b7	0.36164638
106	0xbe00c110	-0.12573647
107	0xbe8762b9	-0.26442507
108	0x3eba9036	0.3643815
109	0x3cab64d4	0.020922102
110	0xbb726855	-0.0036988456
111	0xbb7fa277	-0.0039006749
112	0x3d03c0c6	0.032166265
113	0xbe03be22	-0.12865499
114	0xbef915dc	-0.4864949
115	0x3e413dea	0.18871275
116	0x3eb09785	0.344906
117	0x3dee4101	0.11633492
118	0xbd17763b	-0.036977988
119	0x3d4ce028	0.05001846
120	0x3e68b70f	0.22726081
121	0x3e68430a	0.22681823
122	0x3f0f6593	0.56014365
123	0xbda2e604	-0.07954028
124	0x3e250f56	0.16119131
125	0xbeb47ef8	-0.3525312
126	0xbe2b660b	-0.16738145
127	0xbd81ef7c	-0.06344506
128	0xbc1ce294	-0.009575505
129	0x3c2d5173	0.010578501
130	0xbf11236f	-0.5669469
131	0xbe94de8b	-0.29076037
132	0x3e962b5f	0.29329965
133	0xbd22902b	-0.03968827
134	0xbe4e4059	-0.20141734
135	0xbe2d6c6f	-0.16935895
136	0xbf35c779	-0.71007496
137	0xbe930630	-0.28715658
138	0xbe9e3cce	-0.30905765
139	0x3da7b741	0.0818925
140	0xbbc252d6	-0.005930285
141	0x3bfb5724	0.0076703
142	0x3c8d8b65	0.017278383
143	0xbe5282dc	-0.20557731
144	0xbd2dc5d6	-0.042425
145	0x3d9967b2	0.074904814
146	0xbe1c7cfa	-0.1528205
147	0xbebedc47	-0.37277433
148	0x3df13810	0.11778271
149	0xbeb3e124	-0.35132706
150	0x3e87e0de	0.26538748
151	0xbdfe5b09	-0.12419707
152	0xbe885216	-0.26625127
153	0x3e51e5fb	0.20497887
154	0x3dc1d8b1	0.09465159
155	0xbf02e706	-0.51133764
156	0x3cd4818b	0.025940677
157	0xbe3fd35d	-0.18732972
158	0xbddff4ac	-0.10935339
159	0xbed2639d	-0.41091624
160	0x3e64d394	0.22346336
161	0xbc165a2f	-0.009176775
162	0xbdc6aa09	-0.097004004
163	0x3e70d748	0.23519623
164	0xbe40f6bb	-0.1884412
165	0xbdfbb409	-0.12290198
166	0x3c70efce	0.014705611
167	0x3ee822ff	0.453392
168	0x3f196d1a	0.599321
169	0x3b44b34f	0.0030014103
170	0xbe5156be	-0.20443246
171	0xbe84be5e	-0.2592649
172	0x3df0a775	0.1175069
173	0xbca10851	-0.019657286
174	0xbb786db2	-0.003790718
175	0x3e18762c	0.14888829
176	0x3e4fb12c	0.2028243
177	0x3ef58537	0.47953197
178	0x3e99fa24	0.30073655
179	0xbed5080c	-0.41607702
180	0x3e13b3db	0.14424078
181	0xbce92749	-0.028461115
182	0xbbaecad2	-0.0053342367
183	0x3e49da22	0.19712117
184	0xbded72d1	-0.11594165
185	0xbe41261e	-0.18862197
186	0xbeced1e8	-0.4039452
187	0xbe524cda	-0.20537129
188	0xbe85c6be	-0.2612819
189	0xbe0beae0	-0.13663816
190	0x3e03a47b	0.12855713
191	0xbdd6afb1	-0.10482729
192	0xbe3d4a18	-0.18485296
193	0x3ed05595	0.40690294
194	0xbe8943a1	-0.2680941
195	0x3d921d13	0.07134452
196	0xbe575b7a	-0.2103099
197	0xbecf98be	-0.4054622
198	0xbe0493b8	-0.12946975
199	0xbe36e424	-0.17860466
200	0xbd19fc4d	-0.03759413
201	0x3efe56ee	0.49675697
202	0xbe891991	-0.26777318
203	0x3e2ab35f	0.16669987
204	0xbe94a37c	-0.2903098
205	0xbe0b88df	-0.13626431
206	0xbe116bf0	-0.14201331
207	0xbd48708b	-0.048935454
208	0xbe00a124	-0.1256147
209	0x3edf8f54	0.43664038
210	0x3e45ac29	0.19303955
211	0xbed80a29	-0.42195252
212	0xbdbd30f5	-0.092378534
213	0x3e6a7e03	0.22899632
214	0x3e51bb2a	0.20481554
215	0xbde838f3	-0.11338987
216	0x3e541792	0.20712116
217	0x3ecd201a	0.40063554
218	0x3e14d821	0.14535572
219	0xbd2b52a9	-0.041826878
220	0x3e92e304	0.28688824
221	0xbe3016af	-0.17196153
222	0xbd8a8167	-0.06762963
223	0x3e9c6f4d	0.30553666
224	0x3cb291b4	0.021797992
225	0xbe16a7f8	-0.14712512
226	0x3e41efeb	0.18939178
227	0x3eda0258	0.42579913
228	0x3f003dc1	0.5009423
229	0x3b9c806f	0.0047760527
230	0xbcf64a98	-0.030064866
231	0x3d4733c2	0.048633344
232	0x3de9dfc1	0.11419631
233	0xbe0717b6	-0.13192639
234	0x3e8412f2	0.25795704
235	0x3dbb4372	0.091437235
236	0xbe7aa728	-0.24477828
237	0xbe34831a	-0.17628136
238	0x3cb57f32	0.022155378
239	0xbeaf14f0	-0.34195662
240	0x3f1e2a11	0.6178294
241	0xbe178fd8	-0.14800966
242	0x3e2ac794	0.16677696
243	0xbe43ee31	-0.19133832
244	0x3e342c55	0.17595036
245	0xbd2df5d6	-0.042470776
246	0xbcc07aa5	-0.023495981
247	0x3c8b0031	0.016967865
248	0x3e7157c4	0.23568636
249	0x3ec856a6	0.39128608
250	0xbd5a5807	-0.053306606
251	0x3bcf1207	0.0063192877
252	0xbd4f7de6	-0.050657175
253	0x3ea4133e	0.3204593
254	0xba4edf44	-0.00078915455
255	0x3e102f68	0.14080584

net.0.bias f4 [60]
0	0x39659776	0.00021895565
1	0x387a9cb2	5.975058e-05
2	0xb959437f	-0.00020719877
3	0xb8a6aa13	-7.9471756e-05
4	0x390e67aa	0.00013580793
5	0xb7771c49	-1.4728933e-05
6	0xb8926c1d	-6.98196e-05
7	0x39059d99	0.00012742578
8	0xb7a57f0b	-1.9728692e-05
9	0xb74dfd1c	-1.2277884e-05
10	0xb6881a83	-4.056202e-06
11	0x3784a6dc	1.5813326e-05
12	0xb93c8d5e	-0.0001798174
13	0x39b18d35	0.00033865278
14	0x394af445	0.00019355219
15	0xb900d307	-0.00012285645
16	0x380bc553	3.3323955e-05
17	0xb9a185af	-0.00030807915
18	0x37faa945	2.9881145e-05
19	0x38206baa	3.8247243e-05
20	0x38cde6cd	9.818152e-05
21	0xb97edc73	-0.00024305451
22	0x3929b921	0.00016186062
23	0xb8c7409d	-9.5010946e-05
24	0x388a8e4c	6.606858e-05
25	0xb960fc15	-0.00021456213
26	0xb615a3f2	-2.229816e-06
27	0xb962be44	-0.00021623919
28	0xb939f7cf	-0.00017735291
29	0x38f95b15	0.000118902106
30	0x38405022	4.5850997e-05
31	0xb9007b74	-0.00012253021
32	0x397bc4fc	0.00024010608
33	0xb6cefb63	-6.1685437e-06
34	0x384e12cc	4.9131733e-05
35	0xb972344c	-0.000230984
36	0x37633a86	1.354388e-05
37	0xb706c8e0	-8.033792e-06
38	0xb8154e09	-3.5597044e-05
39	0xb8f71217	-0.00011781247
40	0x3809e8a1	3.2879998e-05
41	0x36747fd6	3.6433244e-06
42	0x3989feea	0.00026320602
43	0x3955f45e	0.00020404297
44	0xb8c047cf	-9.168649e-05
45	0xb99e0025	-0.00030136216
46	0xb9b61c1d	-0.0003473469
47	0x379ced83	1.870725e-05
48	0x36aa8060	5.0813396e-06
49	0x390fd108	0.00013715413
50	0x3828ea06	4.0272273e-05
51	0x3783eaa2	1.5725676e-05
52	0x37cbc794	2.4292422e-05
53	0x3887e64a	6.480196e-05
54	0xb850772a	-4.9702045e-05
55	0xb8026148	-3.1085016e-05
56	0xb98026dc	-0.00024443015
57	0xb7efd4de	-2.8590144e-05
58	0x3819c471	3.6660993e-05
59	0xb8241ce2	-3.9127546e-05

net.1.weight f4 [60]
0	0x3fdfb37e	1.7476652
1	0x3f3ecde6	0.74532926
2	0x3fbf107e	1.4926908
3	0x3ff250b8	1.8930883
4	0x3f7da8ee	0.9908589
5	0x3fa548b2	1.291281
6	0x3fc28810	1.5197773
7	0x3fcb34d2	1.5875494
8	0x3fff4e20	1.9945717
9	0x3feace54	1.8344216
10	0x3f557f5a	0.8339745
11	0x3f74c4e1	0.95612913
12	0x3f5cd870	0.8626776
13	0x40030341	2.0470736
14	0x3fca6ef3	1.5815109
15	0x3ff6b2e1	1.927334
16	0x3fd6be12	1.6776755
17	0x3fc409a6	1.5315444
18	0x4026ad4e	2.6043277
19	0x3f8516ad	1.0397545
20	0x3fb35c3f	1.4012526
21	0x3fb3ced4	1.4047494
22	0x400ac368	2.1681767
23	0x3fe0fc5e	1.7577016
24	0x3fcc1049	1.594247
25	0x3fdbc105	1.716828
26	0x3fc654f7	1.5494679
27	0x3f96e918	1.1789885
28	0x400ba1ec	2.181758
29	0x3fffd651	1.9987279
30	0x3fea24fa	1.8292534
31	0x3fb0501d	1.3774449
32	0x400a6ab1	2.162762
33	0x3f80eb1f	1.0071753
34	0x3ff73e5d	1.9315907
35	0x3fc63a74	1.5486588
36	0x4002d227	2.0440767
37	0x3fb68dd2	1.426203
38	0x3fa04455	1.2520853
39	0x3fc6f240	1.5542679
40	0x3f8e92b8	1.1138525
41	0x3fe3fe86	1.7812049
42	0x3f99eb73	1.2024978
43	0x3fa59e16	1.2938869
44	0x3ff78ee2	1.9340479
45	0x3ffd450d	1.9786698
46	0x3f6ae0b6	0.9174913
47	0x3fc1049b	1.507953
48	0x3fd4ca89	1.6624309
49	0x3fa5dc6e	1.2957895
50	0x3fa614cc	1.2975097
51	0x3f9b6201	1.2139283
52	0x3fa6a443	1.3018879
53	0x3f6a250f	0.91462797
54	0x3fc8fcfd	1.5702206
55	0x3f9c0f13	1.21921
56	0x3ff5710d	1.9175125
57	0x3fc5566d	1.5417
58	0x3f9818f0	1.188261
59	0x3fc4d97f	1.5378875

net.1.bias f4 [60]
0	0xbd05cf4c	-0.032668397
1	0xbe430290	-0.19043946
2	0xbd1ad904	-0.03780462
3	0xbf0c1152	-0.5471393
4	0x3fda3bfd	1.7049557
5	0x3f9a469b	1.2052797
6	0x3f195655	0.5989736
7	0xbfcce50a	-1.6007397
8	0x3d47de40	0.04879594
9	0xbf388ae3	-0.72086924
10	0x3f48ea57	0.78482574
11	0xbf06200c	-0.5239265
12	0x3f9e861c	1.2384677
13	0xbd8c7eb3	-0.068601035
14	0xbf37eb4a	-0.718434
15	0x3d861a60	0.065479994
16	0x3cbcaaf0	0.023030728
17	0xbfa6df42	-1.3036883
18	0x3f9100e3	1.1328396
19	0x3ed11321	0.40834907
20	0x3e92ce89	0.286732
21	0x3eb6982c	0.35662973
22	0x3da2f25b	0.07956382
23	0xbc20a1b7	-0.009804181
24	0x3ea36b1a	0.3191765
25	0xbe2b7431	-0.16743542
26	0xbdb469ed	-0.08809266
27	0xbebb1e24	-0.36546433
28	0xbe897989	-0.26850536
29	0x3e1fa85c	0.15591568
30	0x3ebef6d6	0.37297696
31	0xbc26ebde	-0.010188071
32	0xbf514ccc	-0.8175781
33	0xbe8f4bef	-0.2798762
34	0x3fc93382	1.5718844
35	0xbe9edba0	-0.31026936
36	0xbf51dc76	-0.8197702
37	0x3f507c1f	0.81439394
38	0x3f36e256	0.7143911
39	0xbae5aa14	-0.0017522001
40	0x3f4cca6d	0.7999638
41	0x3d9536c8	0.07285839
42	0xbfe98340	-1.8243179
43	0xbe7d09dc	-0.24710792
44	0x3e7efc1f	0.24900864
45	0xbd9ae6d3	-0.075635575
46	0x3f91432d	1.1348625
47	0x3ee8278a	0.45342666
48	0x3e50fa27	0.20407926
49	0xbf79e94b	-0.976216
50	0x3fadfb25	1.3592268
51	0xbf1f0a91	-0.621255
52	0xbf1bd737	-0.60875267
53	0xbe7990d4	-0.24371654
54	0xbeabc382	-0.33547598
55	0x3d9d1f2d	0.07671962
56	0xbf40bee3	-0.7529127
57	0xbeb72fd5	-0.3577868
58	0x3e2988d9	0.1655611
59	0xbef56131	-0.47925714

net.1.running_mean f4 [60]
0	0xb7a76b4d	-1.9957917e-05
1	0xb5d786fc	-1.6058034e-06
2	0x3742d5cb	1.1613079e-05
3	0x3874add9	5.833604e-05
4	0xb845faae	-4.7201924e-05
5	0x37e7936f	2.7606e-05
6	0xb830788f	-4.207395e-05
7	0xb879d031	-5.956012e-05
8	0x378e8db9	1.6993714e-05
9	0x37e66c24	2.7468493e-05
10	0x37ead21a	2.799281e-05
11	0xb88ccd61	-6.713975e-05
12	0xb8040221	-3.1473235e-05
13	0xb85f9b47	-5.3311956e-05
14	0xb7ab9753	-2.0455254e-05
15	0x37ab46f0	2.0417821e-05
16	0x38101996	3.4356104e-05
17	0x375301ae	1.2576971e-05
18	0x3723d751	9.765689e-06
19	0x38438b00	4.6621077e-05
20	0xb846ee42	-4.7428774e-05
21	0x372c47f1	1.0268749e-05
22	0xb7f5b2cb	-2.9289533e-05
23	0x380ddd7d	3.3823297e-05
24	0x3809d8f6	3.2865406e-05
25	0x38876db1	6.457733e-05
26	0xb72c7e5c	-1.0281419e-05
27	0xb7714ee1	-1.4383085e-05
28	0x359f0785	1.1848612e-06
29	0x3888c968	6.5225e-05
30	0x36890afb	4.0841965e-06
31	0xb7febcd3	-3.0367088e-05
32	0xb81ef3fc	-3.7897364e-05
33	0x37f070a3	2.866268e-05
34	0x37638a4e	1.3562456e-05
35	0xb79edead	-1.893876e-05
36	0xb838748a	-4.3977554e-05
37	0xb7e334f1	-2.7085161e-05
38	0xb7969814	-1.795221e-05
39	0x37792c23	1.4851833e-05
40	0xb6f3b7e3	-7.2633716e-06
41	0x383c636e	4.4915294e-05
42	0xb8ac08f8	-8.20327e-05
43	0x374a1f0d	1.2047368e-05
44	0xb862e05a	-5.4091543e-05
45	0xb7f4bba0	-2.9174436e-05
46	0xb836192c	-4.3415625e-05
47	0xb8a2617b	-7.742919e-05
48	0xb80bba30	-3.3313583e-05
49	0x383400f8	4.2916246e-05
50	0x38776fa9	5.899338e-05
51	0xb7bcfca3	-2.252899e-05
52	0xb84b6948	-4.8497022e-05
53	0xb5300388	-6.557025e-07
54	0xb7b41ec8	-2.1472006e-05
55	0xb832da92	-4.2642067e-05
56	0x38000dd9	3.0530475e-05
57	0xb76f5fdf	-1.4267832e-05
58	0xb7c42022	-2.3379984e-05
59	0x38317ac5	4.2314427e-05

net.1.running_var f4 [60]
0	0x3ea83429	0.32852295
1	0x3f10fabe	0.566326
2	0x3e75720a	0.23969284
3	0x3f4cbca3	0.79975337
4	0x3f37f217	0.71853775
5	0x3e8927b8	0.26788116
6	0x3eaabf17	0.33348915
7	0x3f09e28c	0.5386131
8	0x3f0a6c43	0.54071444
9	0x3eae5284	0.3404733
10	0x3e3db6b0	0.18526721
11	0x3f0abbe0	0.54192924
12	0x3eff3bbb	0.49850258
13	0x3e67bbe1	0.22630264
14	0x3eae4aaf	0.34041354
15	0x3f09cd1a	0.53828585
16	0x3e8dc174	0.27686656
17	0x3eea1e51	0.45726255
18	0x3ea9994b	0.33124766
19	0x3f27455e	0.6534022
20	0x3eac13a4	0.33608735
21	0x3eef0d03	0.46689615
22	0x3e1a0658	0.15041482
23	0x3eb9e132	0.36304623
24	0x3ee44cb7	0.4458978
25	0x3f1c9456	0.6116384
26	0x3ec4b43f	0.38418767
27	0x3e554790	0.2082808
28	0x3f42d637	0.76108116
29	0x3e654789	0.2239057
30	0x3ec4586f	0.3834872
31	0x3f01989a	0.50623477
32	0x3e9c009c	0.30469215
33	0x3e8acc9a	0.27109224
34	0x3ea55e4f	0.32298514
35	0x3ea9feb9	0.3320215
36	0x3e7d1337	0.24714361
37	0x3e18f36d	0.1493661
38	0x3eac923b	0.33705315
39	0x3eae7654	0.34074652
40	0x3eef11fe	0.46693414
41	0x3ee895c3	0.4542676
42	0x3f699d97	0.9125609
43	0x3ebf995b	0.37421688
44	0x3e24b9fe	0.16086575
45	0x3dec96d5	0.115522064
46	0x3ee86e7d	0.45396796
47	0x3f12dec3	0.5737116
48	0x3e73257d	0.2374477
49	0x3f4cdca1	0.80024153
50	0x3e095556	0.1341146
51	0x3f828018	1.0195341
52	0x3eab32f5	0.33437315
53	0x3e814205	0.2524568
54	0x3e9a2732	0.3010803
55	0x3ea383bd	0.31936446
56	0x3e7161e6	0.23572502
57	0x3ef3487e	0.47516245
58	0x3e3ad8b6	0.18246731
59	0x3f2bb3e6	0.6707138

net.3.weight f4 [60, 60]
0	0x3cf7bdfc	0.030241959
1	0xbe551cef	-0.20811819
2	0x3ddac590	0.10682213
3	0xbd9aae17	-0.07552736
4	0xbda582f9	-0.08081622
5	0x3def7680	0.11692524
6	0x3d2f24bf	0.042759653
7	0xbd4c5b21	-0.049891595
8	0x3ed3b82d	0.41351452
9	0x3d2fc296	0.04291018
10	0x3ce2b8fb	0.027676096
11	0xbd9ba4ee	-0.07599817
12	0xbabc58b9	-0.0014369703
13	0x3cbc7b56	0.02300803
14	0xbe07f0a5	-0.13275392
15	0xbe552c38	-0.2081765
16	0x3dfcb220	0.12338662
17	0x3de12ae3	0.10994508
18	0xbd0c4832	-0.03424854
19	0x3c9de7ed	0.01927563
20	0xbe60f2a6	-0.21967563
21	0x3d487f47	0.048949506
22	0xbdd68e88	-0.104764044
23	0xbb9faec2	-0.0048731277
24	0xbe4477a0	-0.19186258
25	0xbdfa5d9a	-0.12224884
26	0x3df09a24	0.1174815
27	0xbca88ebf	-0.02057588
28	0x3ece9bde	0.40353292
29	0xbe545089	-0.20733847
30	0x3e18a6f7	0.14907442
31	0xbe0d1db8	-0.13780868
32	0xbe58dc35	-0.21177752
33	0xbe31a927	-0.17349683
34	0xbdcc7248	-0.09982735
35	0x3d4a9b2a	0.049464382
36	0x3e1c8ef9	0.15288915
37	0x3ddba39e	0.10724567
38	0x3c8d4a17	0.017247243
39	0xbe80e9a7	-0.25178263
40	0xbd05ce4d	-0.032667447
41	0x3b964557	0.0045859027
42	0x3ce772e4	0.028253026
43	0x3d3a8baf	0.04554337
44	0xbd8f1f5d	-0.06988404
45	0x3de44fea	0.11148055
46	0xbef5dbb2	-0.48019177
47	0x3dde5b9a	0.10857315
48	0xbe063343	-0.13105492
49	0x3ee217b6	0.44158715
50	0x3de22938	0.11043018
51	0x3eafb7f1	0.34320024
52	0x3e0f9a82	0.14023784
53	0xbc449f9e	-0.012000946
54	0xbe0d15a7	-0.13777791
55	0xbe09a8e8	-0.13443339
56	0x3e21da00	0.15805817
57	0xbd73a7c8	-0.05948618
58	0x3d7570cb	0.05992202
59	0x3cc0ec86	0.023550283
60	0x3cf0a006	0.02937318
61	0x3cf4ed71	0.029898377
62	0xbe6ad2c0	-0.22931957
63	0xbd3ed2e0	-0.046587825
64	0xbea4ec1d	-0.3221139
65	0xbe8ffb13	-0.28121242
66	0x3e5055f8	0.20345294
67	0xbe4bcd9f	-0.19902657
68	0x3e1d731d	0.15375943
69	0x3e2f4788	0.17117131
70	0xbd4a8122	-0.049439557
71	0x3d922431	0.07135809
72	0xbe7b6dd4	-0.24553615
73	0x3da50e3c	0.080593556
74	0xbd06b855	-0.032890636
75	0xbd89acb1	-0.067223914
76	0xbd2510c3	-0.04029919
77	0x3e999c75	0.3000218
78	0xbe11b5dd	-0.14229532
79	0x3e7936e7	0.2433735
80	0x3da0f014	0.07858291
81	0x3c1ea228	0.009682216
82	0x3d5b568c	0.053549334
83	0xbd99e98e	-0.0751525
84	0xbdcef703	-0.101057075
85	0x3e7e5513	0.2483714
86	0xbc3deab0	-0.011591598
87	0x3ddb4df1	0.107082255
88	0x3e35be9f	0.17748497
89	0xbddc3ae1	-0.10753418
90	0x3de49e31	0.11162985
91	0xbd30268f	-0.043005522
92	0x3e24858f	0.16066574
93	0x3e62cdfb	0.22148888
94	0xbdf7f7cf	-0.121078126
95	0x3c6c9748	0.014440365
96	0xbcd197ab	-0.025585016
97	0x3c1818da	0.009283269
98	0xbd8adb02	-0.06780054
99	0x3df7d2d1	0.12100757
100	0xbe6d887f	-0.231966
101	0xbe44349e	-0.19160697
102	0x3e4374c0	0.19087505
103	0xbdbb859e	-0.09156345
104	0x3e3ae4d6	0.18251356
105	0xbc34bb62	-0.011031004
106	0x3d583e29	0.052793656
107	0x3e4d3dd4	0.20043117
108	0xbe4006b3	-0.18752556
109	0x3eb1947c	0.34683597
110	0x3daef4bd	0.08542774
111	0x3ea3b209	0.31971768
112	0x3a881398	0.0010381816
113	0x3e648922	0.22317937
114	0xbe99391d	-0.29926386
115	0xbbdd5535	-0.0067545422
116	0x3d001d01	0.03127766
117	0xbe7aad5d	-0.24480195
118	0x3da3a298	0.07989997
119	0x3c323bb6	0.010878494
120	0x3d06f1fd	0.03294562
121	0x3e72ca48	0.23709977
122	0xbe8cebb9	-0.27523592
123	0xbcf2af55	-0.02962462
124	0xbcac689d	-0.021045977
125	0xbbdf0770	-0.0068063065
126	0xbe0ff228	-0.14057219
127	0x3e86c3c1	0.26321223
128	0xbcf6cc06	-0.030126583
129	0x3ca01728	0.019542292
130	0xbcced242	-0.025246743
131	0x3de86e98	0.11349219
132	0xbda861fd	-0.08221815
133	0xbe7128de	-0.23550746
134	0x3c9b176b	0.018932065
135	0x3d9cb96e	0.076525554
136	0xbe31d658	-0.17366922
137	0xbe0173d6	-0.12641844
138	0xbd7cb597	-0.061696615
139	0x3de507a3	0.11183097
140	0xbdda6cea	-0.10665305
141	0x3de0dcbd	0.109796025
142	0x3d9ddd4d	0.077082254
143	0x3bfa5899	0.007639956
144	0xbcb5a03e	-0.022171136
145	0xbe5eea22	-0.21769002
146	0x3e0caa10	0.13736749
147	0x3e293cdf	0.16527127
148	0xbe218e53	-0.15776949
149	0x3e3e0aa3	0.18558745
150	0xbe0d6e98	-0.1381172
151	0x3c35e1c9	0.011101195
152	0x3ccacc1c	0.02475553
153	0x3eaf8d8c	0.3428768
154	0xbd8ca99c	-0.06868288
155	0x3de6a313	0.11261573
156	0xbe172f2a	-0.14764085
157	0xbd4b8431	-0.049686614
158	0x3d180394	0.037112787
159	0x3e1ae9e4	0.15128285
160	0x3df1f0c7	0.11813503
161	0x3e50941b	0.20368998
162	0x3d89d36d	0.067297794
163	0xbd5fde5c	-0.054655418
164	0x3b11f8ef	0.002227362
165	0x3d8935ce	0.066997156
166	0x3ebb5113	0.36585292
167	0xbe220e76	-0.15825829
168	0x3d8ddbb3	0.0692667
169	0xbcf04d09	-0.029333608
170	0xbddf2b22	-0.10896899
171	0xbe1b4db9	-0.15166368
172	0xbce015f9	-0.027354227
173	0x3de9e382	0.11420347
174	0xbd29900c	-0.04139714
175	0x3e8a2c88	0.269871
176	0xbdc12bc6	-0.09432177
177	0x3e4b2f22	0.19842198
178	0xbd7022e9	-0.058627043
179	0x3e73a4c3	0.2379332
180	0xbe290c18	-0.1650852
181	0x3da7607c	0.081727
182	0xbda2b1bd	-0.07944057
183	0xbc1765cc	-0.009240579
184	0x3dc7b6c4	0.09751657
185	0x3e847ca8	0.25876355
186	0xbdb1fe93	-0.08691134
187	0x3cf9df62	0.030502025
188	0xbc495a2c	-0.012289565
189	0xbe0617ac	-0.13094968
190	0x3d6156d1	0.055014435
191	0x3ca8d3ac	0.020608746
192	0x3e5e23a3	0.21693282
193	0x3e324cbb	0.17412083
194	0x3e412fb3	0.18865852
195	0x39261955	0.0001584043
196	0xbcacadf8	-0.021079049
197	0xbe796029	-0.24353088
198	0x3dbe23f4	0.09284201
199	0x3c48901e	0.012241391
200	0x3e914b4d	0.28377762
201	0xbdc0e7da	-0.09419222
202	0xbe3ecc65	-0.18632658
203	0xbddf51e6	-0.10904293
204	0x3dd7e85f	0.10542368
205	0x3e2c391f	0.16818665
206	0x3e28aae0	0.16471434
207	0xbe25769b	-0.16158526
208	0xbd82d44b	-0.06388148
209	0x3d3ed6ac	0.046591446
210	0xbe025963	-0.12729411
211	0xbdefbf73	-0.11706438
212	0xbed423a2	-0.41433436
213	0xbe04fa46	-0.12986097
214	0x3eedce2b	0.46446356
215	0x3e203a83	0.1564732
216	0x3d1d6a74	0.0384316
217	0x3e0dedb4	0.13860208
218	0x3dbf1dbf	0.093318455
219	0xbe15e4ea	-0.14638105
220	0x3d4e663b	0.050390463
221	0x3ca41cb4	0.020033218
222	0x3d590606	0.05298426
223	0xbd13844d	-0.036014844
224	0xbe05124e	-0.12995264
225	0x3e62df63	0.22155528
226	0xbd165129	-0.036698494
227	0x3d4217bb	0.047385912
228	0x3dd27756	0.10276668
229	0x3ce53060	0.027977169
230	0xbe262b92	-0.16227558
231	0xbd52cc57	-0.051464405
232	0xbe38e5df	-0.18056439
233	0xbcc967f7	-0.024585707
234	0x3e10f1c9	0.14154734
235	0x3c17b772	0.009260045
236	0xbeaf43e4	-0.34231484
237	0x3e2138fe	0.15744397
238	0xbdd8a2e6	-0.105779454
239	0xbc72c3ec	-0.014817219
240	0xbe7c9c50	-0.24669003
241	0x3e6a226b	0.22864692
242	0xbe5294c7	-0.20564567
243	0xbe5d2942	-0.2159777
244	0xbe9a551d	-0.3014306
245	0xbe00ea37	-0.12589346
246	0xbd0ea9b7	-0.03482982
247	0xbc8e53a1	-0.017373862
248	0xbd55dd20	-0.052212834
249	0xbc8e114a	-0.017342228
250	0xbd84ca82	-0.06483938
251	0x3e902ff0	0.28161573
252	0xbe7d26e9	-0.24721874
253	0xbcfcb4b3	-0.030847883
254	0xbcc35db3	-0.02384839
255	0xbea9d62e	-0.3317122

net.3.bias f4 [60]
0	0xb82fac52	-4.1883737e-05
1	0x386a35a5	5.5839908e-05
2	0xb8cee150	-9.864813e-05
3	0x38002018	3.0547468e-05
4	0x37903121	1.7189015e-05
5	0x3816c989	3.595048e-05
6	0x3766b30a	1.3750754e-05
7	0x3805316e	3.1755706e-05
8	0x385a46e1	5.204126e-05
9	0xba6fc9e7	-0.0009147212
10	0x3828ac8a	4.021501e-05
11	0x35879d33	1.0104035e-06
12	0xb8be210c	-9.0660615e-05
13	0xb811b4e4	-3.473916e-05
14	0xb7ac3474	-2.0528423e-05
15	0xb65dc162	-3.304413e-06
16	0x3716ebf8	8.9956375e-06
17	0xb8b3af14	-8.567996e-05
18	0xb7cfaade	-2.475589e-05
19	0x38936e9c	7.030109e-05
20	0xb83ab254	-4.4511937e-05
21	0xb7f3dde4	-2.9071183e-05
22	0x3950de88	0.00019919325
23	0x3896bfbf	7.188273e-05
24	0x389c1d7d	7.444152e-05
25	0xb835452b	-4.321818e-05
26	0x39715bdb	0.0002301777
27	0x3793570b	1.7564298e-05
28	0x37fcf63b	3.0155401e-05
29	0xb7c5d62d	-2.3583963e-05
30	0x383a551c	4.442512e-05
31	0x387be85b	6.005946e-05
32	0x37d7796e	2.5686542e-05
33	0x3878b8b2	5.929982e-05
34	0x38f34d10	0.00011601497
35	0xb7be9bdd	-2.2722345e-05
36	0xb825159e	-3.9359198e-05
37	0xb83630bd	-4.3437572e-05
38	0xb76a61b0	-1.39702315e-05
39	0xb7edbaa1	-2.8339507e-05
40	0xb788a827	-1.6290765e-05
41	0xb8642891	-5.4397216e-05
42	0xb85d60fc	-5.278083e-05
43	0xb85d6c61	-5.279144e-05
44	0x37c1262b	2.3025166e-05
45	0xb8b1c759	-8.477149e-05
46	0xb82bb503	-4.0938157e-05
47	0xb759e573	-1.2987631e-05
48	0x37c51825	2.3495473e-05
49	0xb7974b6a	-1.803572e-05
50	0x381d0710	3.7438294e-05
51	0x38633801	5.4173175e-05
52	0x386ea375	5.6895853e-05
53	0x394d41b2	0.00019574797
54	0xb7c75db1	-2.3766277e-05
55	0xba117179	-0.000554822
56	0x38ddb4be	0.00010571767
57	0xb87298f5	-5.783975e-05
58	0xb7b5ef87	-2.168842e-05
59	0xb73cd1fc	-1.1254564e-05

net.4.weight f4 [60]
0	0x402ec5c7	2.7308214
1	0x401cfc62	2.4529042
2	0x3fb61785	1.4225928
3	0x3fd1464a	1.6349576
4	0x3fd1b160	1.6382256
5	0x3fdd3554	1.72819
6	0x3fc94812	1.5725119
7	0x3fd9016d	1.695356
8	0x3fc32b0b	1.5247511
9	0x40006ff6	2.0068336
10	0x4022c332	2.5431638
11	0x4080e743	4.02823
12	0x40189e04	2.3846445
13	0x3fe19923	1.7624859
14	0x3fb0b837	1.3806218
15	0x400f4056	2.2383018
16	0x3fe42216	1.7822902
17	0x3fdfb9ed	1.7478615
18	0x4013fe29	2.3123877
19	0x3fa90b1b	1.3206514
20	0x3fb6bfda	1.4277298
21	0x403256c4	2.7865458
22	0x40080746	2.125444
23	0x402dcae8	2.7155094
24	0x4027ffac	2.62498
25	0x407be696	3.9359488
26	0x3fa6d1e4	1.3032804
27	0x3fbf687e	1.4953763
28	0x3fda3a17	1.7048978
29	0x401630c3	2.3467262
30	0x3f97ed27	1.1869248
31	0x3f71efd8	0.945066
32	0x3fd884cd	1.6915528
33	0x405879cd	3.3824341
34	0x3fbea1eb	1.4893163
35	0x3f997322	1.1988261
36	0x3fca55ef	1.5807475
37	0x4040ee2d	3.014537
38	0x3f6b9b9f	0.92034334
39	0x3fd8e004	1.6943364
40	0x3f7d44be	0.9893302
41	0x3fbe12b8	1.4849463
42	0x3f99955c	1.1998706
43	0x3fa2ba15	1.2713038
44	0x3fb9b7d5	1.4509226
45	0x3fc51415	1.5396754
46	0x3fa92c38	1.321662
47	0x4031d2fd	2.7785027
48	0x3f9de41d	1.233524
49	0x40044749	2.066851
50	0x3fff5d5a	1.9950364
51	0x3fd9eefb	1.7026056
52	0x3f9c5a10	1.2214985
53	0x402190d9	2.5244658
54	0x3fbe5457	1.4869488
55	0x3fbd1bb9	1.4774085
56	0x404199d1	3.0250132
57	0x4092cc99	4.5874753
58	0x3fe7cca2	1.8109324
59	0x3fe5aeea	1.7944005

net.4.bias f4 [60]
0	0x3db83ca4	0.08995941
1	0xbec4cdc0	-0.38438225
2	0x3f732888	0.9498372
3	0xbe5edd38	-0.21764076
4	0x3f50ff4e	0.81639564
5	0xbe4627f4	-0.19351178
6	0xbf8bb1da	-1.0913651
7	0x3d9925db	0.074779235
8	0x3ee395d3	0.44450244
9	0xbfb1e5ee	-1.3898294
10	0x3eb1fab9	0.347616
11	0xbfab6863	-1.3391231
12	0xbea94dcd	-0.3306717
13	0xbe83fbf5	-0.25778165
14	0x3f0d3f0a	0.55174315
15	0x3efb2974	0.49055064
16	0xbedadd2b	-0.42746863
17	0x3c29f3bd	0.010373053
18	0x3fa2df5c	1.2724414
19	0xbf028aab	-0.5099284
20	0x3f2c2b66	0.6725372
21	0xbda74588	-0.08167559
22	0xbf8870be	-1.0659406
23	0xbf3fac46	-0.74872243
24	0xbef2e882	-0.47443014
25	0xbdb84174	-0.08996859
26	0xbf95ca91	-1.1702443
27	0xbd1b3d12	-0.037900038
28	0x3f262c80	0.6491165
29	0x3f7d5a56	0.98965967
30	0x3f75775d	0.9588526
31	0x3ed9ee7e	0.42564768
32	0x3ea0db28	0.31417203
33	0xbfcfbbe4	-1.6229215
34	0x3fc38330	1.527441
35	0x3ec99aac	0.39375818
36	0x3ee21523	0.4415675
37	0xbf61e364	-0.88237596
38	0xbe9ded3a	-0.30845052
39	0x3f1b08fd	0.6056059
40	0xbf340b19	-0.70329434
41	0x3f44a913	0.76820487
42	0x3e60a2f4	0.21937162
43	0xbf87303e	-1.0561597
44	0x3f7c5459	0.98566204
45	0x3e009bad	0.12559386
46	0x3f5c80d2	0.86134064
47	0x3f08aa67	0.53385013
48	0x3e92eee9	0.286979
49	0xbd03c06b	-0.032165926
50	0xbf1f436d	-0.6221226
51	0x3f1caed4	0.61204267
52	0x3fba4dc7	1.4554986
53	0xbf751e96	-0.95749795
54	0x3f42eb42	0.76140225
55	0xbf955bad	-1.1668602
56	0xbef65ab8	-0.48116088
57	0xbf9886be	-1.191612
58	0xbf8c9fd2	-1.0986273
59	0x3f188367	0.59575504

net.4.running_mean f4 [60]
0	0xbefce30e	-0.4939198
1	0xbf9137a3	-1.1345104
2	0xbe8c0537	-0.2734773
3	0x3f6abfcf	0.91698927
4	0xbf34c4a2	-0.7061254
5	0x3eb3a1b8	0.3508432
6	0xbe60d6bc	-0.21956915
7	0xbeb6417c	-0.35596836
8	0x3f29e0f6	0.6635889
9	0xbff29a5b	-1.8953356
10	0x3e5c5267	0.21515809
11	0xbf8b6545	-1.089028
12	0x3e483e57	0.19555031
13	0xbec4a020	-0.38403416
14	0x3e5b29cd	0.21402664
15	0xbe03f702	-0.12887195
16	0xbe733267	-0.23749696
17	0x3f110c80	0.566597
18	0x3f34ea74	0.7067025
19	0xbfacebd4	-1.3509469
20	0x3f9b8d95	1.2152582
21	0xbe8e8eba	-0.27843267
22	0xbf9e0a10	-1.2346821
23	0xbf4c7f5c	-0.79881835
24	0x3f026abe	0.50944126
25	0x3f27a782	0.6548997
26	0xbfdff2df	-1.7495993
27	0x3f1988b2	0.59974205
28	0x3e4ab390	0.1979506
29	0xbf103ed0	-0.56345844
30	0x3fcabb15	1.5838343
31	0xbe849771	-0.2589679
32	0x3fa18b0e	1.2620561
33	0xbf6d20e7	-0.9262833
34	0xbe3354fe	-0.1751289
35	0x3eb6991e	0.35663694
36	0xbebb8d24	-0.3663112
37	0xbef6c425	-0.4819652
38	0x3ea42355	0.32058206
39	0xbe6937e4	-0.22775227
40	0xbf5e6a5c	-0.8688104
41	0x3f1677eb	0.5877673
42	0xbe492f17	-0.1964687
43	0x3d92c5c8	0.0716663
44	0x3e4b81f3	0.1987379
45	0x3f4a0f11	0.7892924
46	0x3ee38b1e	0.44442075
47	0x3f3f572b	0.7474238
48	0x3e4045c2	0.1877661
49	0xbe4fed4f	-0.2030537
50	0xbe29868b	-0.1655523
51	0xbf005ca7	-0.50141376
52	0x3f2238e8	0.6336808
53	0xbfac20d3	-1.3447517
54	0xbe388aef	-0.18021749
55	0xbfe73fe2	-1.806637
56	0xbd9eb3a9	-0.07749111
57	0x3e3cf1a4	0.18451554
58	0x3d0f6327	0.03500667
59	0x3f568c72	0.8380805

net.4.running_var f4 [60]
0	0x3e201327	0.15632306
1	0x3e49d883	0.19711499
2	0x3e802195	0.2502562
3	0x3e27c457	0.16383491
4	0x3e1710d5	0.14752515
5	0x3db1bd87	0.086787276
6	0x3e21db1c	0.1580624
7	0x3e5d3f16	0.21606097
8	0x3e8b001b	0.27148518
9	0x3f69b5db	0.91293114
10	0x3e26f2b0	0.16303515
11	0x3eae7d7a	0.34080106
12	0x3e0e4e83	0.13897137
13	0x3e1f03ce	0.15528795
14	0x3e204c71	0.1565416
15	0x3e7d3cb1	0.24730183
16	0x3f0a68c5	0.54066116
17	0x3fa83b15	1.314303
18	0x3dd13f00	0.102170944
19	0x3e305f39	0.17223825
20	0x3e03840a	0.12843338
21	0x3e237ac1	0.15964796
22	0x3f33168d	0.69956285
23	0x3df7f055	0.121063866
24	0x3eb18a4c	0.34675825
25	0x3e504aff	0.20341109
26	0x3eea664d	0.45781174
27	0x3db55088	0.08853251
28	0x3e231a86	0.15928087
29	0x3df9bdce	0.121944055
30	0x3efbe1d4	0.4919573
31	0x3edc94e5	0.43082348
32	0x3ec79846	0.38983363
33	0x3dfd0ef2	0.12356366
34	0x3d93388d	0.071885206
35	0x3e64f7fd	0.22360225
36	0x3e3f9b9a	0.18711701
37	0x3e7e51ff	0.24835967
38	0x3e18e3d7	0.14930664
39	0x3e0e057c	0.1386928
40	0x3db7e5ac	0.08979353
41	0x3e2febe8	0.17179835
42	0x3e362c6d	0.17790385
43	0x3dc9effb	0.09860226
44	0x3dc1fa87	0.094716124
45	0x3e02cf19	0.12774314
46	0x3e688d9b	0.22710268
47	0x3ea60bb2	0.32430798
48	0x3e247109	0.16058744
49	0x3e939d92	0.28831154
50	0x3e381da8	0.17980063
51	0x3dd7d8e2	0.10539414
52	0x3e2f2f19	0.1710781
53	0x3e8a6007	0.27026388
54	0x3da23f28	0.07922202
55	0x3f10dbd3	0.56585425
56	0x3e864bda	0.26229745
57	0x3df3cb5d	0.11904023
58	0x3e26dbf9	0.1629485
59	0x3eb23290	0.348042

net.6.weight f4 [60, 60]
0	0x80055a31	-4.91532e-40
1	0x80055bbe	-4.92088e-40
2	0x800560c5	-4.93892e-40
3	0x80055951	-4.91218e-40
4	0x00055e61	4.93034e-40
5	0x80055b49	-4.91924e-40
6	0x80055beb	-4.92151e-40
7	0x00056084	4.93801e-40
8	0x80056100	-4.93975e-40
9	0x8005584e	-4.90855e-40
10	0x8005594d	-4.91213e-40
11	0x800559ac	-4.91346e-40
12	0x80055b55	-4.91941e-40
13	0x00055753	4.90504e-40
14	0x00055ca8	4.92416e-40
15	0x80056383	-4.94876e-40
16	0x80056405	-4.95058e-40
17	0x800557cd	-4.90674e-40
18	0x0005591d	4.91145e-40
19	0x80055c88	-4.92371e-40
20	0x80055827	-4.908e-40
21	0x80055af9	-4.91812e-40
22	0x80055f16	-4.93288e-40
23	0x00055979	4.91274e-40
24	0x00055d0b	4.92555e-40
25	0x80056118	-4.94008e-40
26	0x00056140	4.94064e-40
27	0x000560a1	4.93841e-40
28	0x80055e1b	-4.92936e-40
29	0x80055992	-4.91309e-40
30	0x800558c9	-4.91028e-40
31	0x0005625f	4.94466e-40
32	0x00055f39	4.93337e-40
33	0x00055d5b	4.92667e-40
34	0x00055c85	4.92367e-40
35	0x80055cc7	-4.9246e-40
36	0x0005647c	4.95224e-40
37	0x0005612b	4.94035e-40
38	0x8005626b	-4.94483e-40
39	0x00055870	4.90903e-40
40	0x0005619d	4.94195e-40
41	0x80055ede	-4.9321e-40
42	0x800560e1	-4.93931e-40
43	0x000563e2	4.95009e-40
44	0x00055755	4.90506e-40
45	0x80055835	-4.9082e-40
46	0x0005581f	4.9079e-40
47	0x00055c5a	4.92307e-40
48	0x00055b26	4.91875e-40
49	0x800558c0	-4.91015e-40
50	0x00056059	4.9374e-40
51	0x00055f5d	4.93387e-40
52	0x00055b04	4.91828e-40
53	0x80055e22	-4.92946e-40
54	0x800562b2	-4.94583e-40
55	0x80055eec	-4.93229e-40
56	0x000558a3	4.90974e-40
57	0x00055af2	4.91803e-40
58	0x8005632b	-4.94752e-40
59	0x8005629a	-4.94549e-40
60	0xbdc460c7	-0.09588771
61	0xbd61d735	-0.055136878
62	0x3d6a0d89	0.057141814
63	0xbbf716a4	-0.007540541
64	0xbd64f474	-0.05589719
65	0xbd62af5a	-0.05534301
66	0xbca70f8f	-0.020393161
67	0x3b35b4e0	0.0027726218
68	0xbbc1483f	-0.005898505
69	0x3f1ee8e7	0.6207413
70	0xbe81561a	-0.25261003
71	0xbb6fa1f5	-0.003656504
72	0xbd4be08b	-0.049774688
73	0x3e166170	0.14685607
74	0xbd639986	-0.055566333
75	0x3c41f9ef	0.011839374
76	0xbac7ee2c	-0.0015253476
77	0xbdac420d	-0.08411036
78	0xbc7f4bf2	-0.015582072
79	0xbdf4f0cd	-0.119599916
80	0xbcc4dba6	-0.024030518
81	0xbddacabc	-0.106832
82	0xbe9bea08	-0.3045199
83	0xbd234687	-0.039862182
84	0xbd97eb7b	-0.07417961
85	0x3dd361cf	0.1032139
86	0x3f044d45	0.51680404
87	0xbdd4f42a	-0.10398133
88	0x3e0fe6e7	0.14052926
89	0x3e3c6b0e	0.18400213
90	0xbe6cda19	-0.23130073
91	0x3ddf0e0f	0.10891353
92	0xbe21fb12	-0.15818432
93	0x3d2b6e71	0.041853372
94	0x3d36eba9	0.044658337
95	0xbd67c0ea	-0.05658046
96	0xbd80f3b1	-0.062964804
97	0x3ccfa758	0.02534835
98	0xbc7528b8	-0.014963321
99	0xbd951ef2	-0.07281293
100	0x3dc57974	0.09642306
101	0x3e0b8e47	0.13628493
102	0x3dd2eb66	0.10298805
103	0xbd70e1f4	-0.058809236
104	0x3d8d2e4a	0.068935946
105	0x3a85d31b	0.0010210009
106	0xbdaf95a8	-0.085734665
107	0xbe962138	-0.2932222
108	0xbe9225dd	-0.28544512
109	0xbca882fa	-0.020570267
110	0x3b5abdfd	0.0033377402
111	0x3e61c279	0.22046842
112	0xbec2f3fd	-0.38076773
113	0x3dd77fc5	0.10522417
114	0xbde2f903	-0.110826515
115	0xbdf5871f	-0.11988663
116	0x3e2eed60	0.17082739
117	0x3d2e3fd3	0.042541336
118	0xbe1e20c3	-0.15442185
119	0xbe697b61	-0.22800972
120	0xbd93f320	-0.07224107
121	0xbd06ffc8	-0.032958776
122	0x3ecc4d7b	0.39902863
123	0x3e090fb1	0.13384892
124	0x3e2d2a43	0.16910653
125	0xbe88090e	-0.26569408
126	0x3e1befba	0.15228167
127	0xbd87bc0f	-0.06627666
128	0x3d082250	0.033235848
129	0x3e584173	0.21118717
130	0x3dcd1606	0.10013966
131	0xbedc92b9	-0.4308069
132	0xbe97cd47	-0.29648802
133	0x3c1fba7c	0.009749051
134	0x3d9f4769	0.07777292
135	0xbea0618d	-0.31324425
136	0xbe77ca3f	-0.24198245
137	0x3d885ea6	0.06658678
138	0x3ea0a33d	0.3137454
139	0x3d25ff4e	0.04052668
140	0x3d2e14bd	0.042500246
141	0x3d49a9b2	0.0492341
142	0xbe913697	-0.2836196
143	0x3e1983de	0.1499171
144	0x3e187d52	0.14891556
145	0x3ea8336c	0.32851732
146	0x3df2a008	0.1184693
147	0x3de2d777	0.11076253
148	0x3d115cde	0.035488956
149	0xbe53fdff	-0.2070236
150	0xbd3da786	-0.04630234
151	0xbd26f161	-0.04075754
152	0xbc972c12	-0.018453632
153	0x3e612e0f	0.21990226
154	0xbd42c86b	-0.047554415
155	0x3deb6944	0.11494687
156	0xbd9db8d9	-0.077012725
157	0xbe889df9	-0.26683024
158	0x3da1c2d1	0.078984864
159	0xbea34c7c	-0.3189429
160	0x3da8c7ff	0.08241271
161	0xbe07a68f	-0.13247131
162	0x3de019bd	0.10942409
163	0xbe75ec44	-0.2401591
164	0xbd6bfe9a	-0.057615854
165	0x3c5f8ddc	0.013644662
166	0x3d593c19	0.05303583
167	0x3e4356f0	0.19076133
168	0x3df66b5b	0.12032195
169	0x3e989efd	0.29808798
170	0xbde38270	-0.11108863
171	0xbe4b8dc3	-0.19878297
172	0xbe5fe045	-0.21862896
173	0xbea9662e	-0.3308577
174	0x3e12eeb8	0.14348876
175	0xbd09d77f	-0.03365278
176	0x3e04f6dc	0.12984794
177	0xbe9136cd	-0.28362122
178	0x3e130f90	0.14361405
179	0x3c8726e8	0.016498044
180	0xbe783cc3	-0.24241929
181	0xbc25a38f	-0.010109796
182	0xbd51c5d4	-0.051214054
183	0xbd334d9c	-0.043775186
184	0xbe1dafca	-0.1539909
185	0xbc1fb092	-0.0097466875
186	0xbe092ece	-0.13396761
187	0x3e7b5182	0.24542812
188	0x3e3e50a2	0.18585446
189	0xbeae037b	-0.3398703
190	0x3d40bac7	0.047053125
191	0xbe5ad1e6	-0.21369132
192	0x3e74e0d5	0.23913892
193	0xbe4f7524	-0.2025953
194	0x3d89f01b	0.067352496
195	0xbb5ecd17	-0.0033996755
196	0xbe51e3fd	-0.20497127
197	0xbe86f5cf	-0.26359412
198	0x3e03b13b	0.12860577
199	0xbe430780	-0.1904583
200	0x3dfc6276	0.123234674
201	0xbe1d4c17	-0.15361057
202	0x3c481dfb	0.012214179
203	0x3e0a6004	0.1351319
204	0xbe0bf6ed	-0.13668413
205	0x3daca7c1	0.08430434
206	0x3d9643f6	0.07337181
207	0x3e073828	0.13205016
208	0xbc9dd258	-0.019265339
209	0xbbd89ae8	-0.006610263
210	0x3e5d7d8b	0.21629922
211	0x3e23a5ce	0.15981218
212	0x3e3de222	0.18543294
213	0x3deeb63a	0.11655851
214	0x3dbb69c2	0.09151031
215	0x3e4d680a	0.20059219
216	0xbdad1a3d	-0.0845227
217	0xbc5b18a8	-0.013372578
218	0x3c1daf3f	0.009624301
219	0xbe28af0a	-0.16473022
220	0x3dee01fb	0.116214715
221	0xbdffd4f5	-0.1249179
222	0x3de6e6bc	0.11274478
223	0x3d0f6fb2	0.03501863
224	0x3d76dbb1	0.060268108
225	0xbdb467ec	-0.08808884
226	0x3e3db0b7	0.18524443
227	0xbbaced57	-0.0052773166
228	0x3c8380af	0.016052572
229	0x3e801bfe	0.25021356
230	0x3d0b5449	0.034015927
231	0x3cf81e37	0.030287845
232	0xbd018be1	-0.03162754
233	0xbe54b806	-0.20773324
234	0x3e4d9a78	0.20078456
235	0xbe20e330	-0.15711665
236	0x3d5a1b73	0.053248834
237	0xbe62f44a	-0.22163501
238	0x3de4aa36	0.11165278
239	0xbde59605	-0.112102546
240	0xbd3af23a	-0.04564116
241	0x3dc0c319	0.09412212
242	0x3d4599f4	0.048242524
243	0xbda3fcf4	-0.08007231
244	0x3e40b442	0.18818763
245	0xbd897671	-0.06712044
246	0xbdecd1a4	-0.11563423
247	0xbcfb10ee	-0.030647721
248	0xbe733b6f	-0.23753141
249	0xbe824bf2	-0.25448567
250	0xbd6b6620	-0.05747044
251	0xbc109f05	-0.008826976
252	0x3db079cd	0.08616982
253	0x3e566f65	0.20940931
254	0xbd33ec8f	-0.04392677
255	0xba279a5c	-0.0006393546

net.6.bias f4 [60]
0	0x8000dae0	-7.8518e-41
1	0x38271576	3.983589e-05
2	0x39538b41	0.00020174404
3	0xb7c58ecf	-2.355073e-05
4	0x361b0eae	2.3105345e-06
5	0xb612aa19	-2.1854705e-06
6	0x380d3e0d	3.367481e-05
7	0x36f0e43e	7.1791283e-06
8	0xb88e319d	-6.780329e-05
9	0x371f67b0	9.50128e-06
10	0xb773b58a	-1.45261965e-05
11	0x37147bbd	8.8502975e-06
12	0x0006344b	5.69772e-40
13	0x38a1246d	7.683863e-05
14	0x38303304	4.2009182e-05
15	0xb7ba037a	-2.2174547e-05
16	0x800fd0f4	-1.45249e-39
17	0x37871d94	1.6107027e-05
18	0xb73b4ee6	-1.1164439e-05
19	0x385868b3	5.1595922e-05
20	0x001afb1d	2.477805e-39
21	0x37acb8b4	2.0590007e-05
22	0x394a9043	0.00019317963
23	0xb87c3721	-6.0132825e-05
24	0x38229a7f	3.8767696e-05
25	0x8006db0e	-6.29595e-40
26	0xb91d754c	-0.00015016383
27	0xb729c388	-1.0118711e-05
28	0xb6e09e70	-6.6941648e-06
29	0xb956ee12	-0.00020497318
30	0xb8fb1adb	-0.00011973615
31	0xb8dfa397	-0.000106639396
32	0x37f26355	2.8894903e-05
33	0x3825dda1	3.9545474e-05
34	0xb72f5356	-1.0450216e-05
35	0x829ebfee	-2.3326176e-37
36	0xb8093eec	-3.2721946e-05
37	0xb953fbc2	-0.00020216315
38	0x38e706a9	0.00011016179
39	0x384d3fae	4.8935115e-05
40	0xb8a871ad	-8.032038e-05
41	0xb7a1a3aa	-1.9268908e-05
42	0x39650578	0.00021841179
43	0xb8424954	-4.6321496e-05
44	0x387bdc63	6.0048314e-05
45	0xb7fa72a5	-2.9855708e-05
46	0x3891a9e4	6.9457834e-05
47	0x3890a049	6.8963105e-05
48	0x37967382	1.7935181e-05
49	0x3878604b	5.9217487e-05
50	0xb7db5d8d	-2.6150397e-05
51	0xb7a55864	-1.9710693e-05
52	0x38c6bc8a	9.476494e-05
53	0x37f2b5f3	2.8933375e-05
54	0x36dc2093	6.560303e-06
55	0xb71899f9	-9.095756e-06
56	0xb8002779	-3.055434e-05
57	0xb6a7a78b	-4.9964924e-06
58	0x37c62c15	2.3623967e-05
59	0x37aab1fc	2.034846e-05

net.7.weight f4 [60]
0	0x80055c9c	-4.924e-40
1	0x3fdbc289	1.7168742
2	0x4056e2b2	3.3575864
3	0x3fd075f1	1.6285993
4	0x3fe486fe	1.7853696
5	0x3ffdf9d8	1.9841871
6	0x3fda28a7	1.7043656
7	0x401ea5d7	2.478872
8	0x4028fc91	2.6404154
9	0x400d4f5f	2.2079694
10	0x3ff491d4	1.9107003
11	0x3fd368a8	1.6516314
12	0x80055ccb	-4.92465e-40
13	0x4019ff02	2.4061894
14	0x40299764	2.6498652
15	0x3fba2ca3	1.4544872
16	0x8e9b8af2	-3.834425e-30
17	0x401974e8	2.3977604
18	0x3fbedefc	1.49118
19	0x3fda0e5d	1.7035633
20	0x800562a7	-4.94567e-40
21	0x403a1910	2.9077797
22	0x40101669	2.2513678
23	0x3fb252c9	1.3931514
24	0x3fde5f2d	1.7372795
25	0x80055843	-4.9084e-40
26	0x40167557	2.3509119
27	0x3fadc29f	1.3575019
28	0x3fe8d44b	1.8189787
29	0x4012c34c	2.29317
30	0x40311f32	2.767529
31	0x4026b480	2.6047668
32	0x3fe1e00b	1.7646497
33	0x4001bf68	2.0273075
34	0x3fd9dbd0	1.7020206
35	0x00055775	4.90551e-40
36	0x3ff2c078	1.8964987
37	0x406128e9	3.518122
38	0x4000b309	2.0109274
39	0x3fe7749f	1.8082465
40	0x4017cd5e	2.3719096
41	0x40151148	2.3291798
42	0x4017f2ab	2.3741863
43	0x4008a9d1	2.1353648
44	0x3fbffa61	1.4998285
45	0x3fc9849d	1.5743595
46	0x4017b17e	2.3702083
47	0x3ff79f17	1.9345425
48	0x40241b51	2.5641673
49	0x4012cdc4	2.293809
50	0x3fa11ddd	1.2587239
51	0x3fbe163f	1.4850539
52	0x3fe19a4b	1.7625211
53	0x3ff36081	1.9013826
54	0x4002b974	2.0425692
55	0x3fd66ed8	1.6752577
56	0x3fd6b001	1.6772462
57	0x3ffd08f5	1.9768358
58	0x402a1c60	2.6579819
59	0x40193dbc	2.394393

net.7.bias f4 [60]
0	0x3a4440af	0.0007486445
1	0xbebbe4cf	-0.36698005
2	0xbdace117	-0.0844137
3	0x3ea6a9b9	0.32551363
4	0xbeb66888	-0.35626626
5	0x3eb8c149	0.36084965
6	0xbe81c359	-0.2534435
7	0xbe48dc18	-0.19615209
8	0x3eb3ee24	0.35142624
9	0x3eecc2cd	0.4624237
10	0xbda44765	-0.0802143
11	0xbd90d899	-0.07072563
12	0x238ea279	1.546448e-17
13	0x3e0f0a97	0.13968883
14	0xbf065b1c	-0.5248277
15	0xbe9206a9	-0.28520706
16	0x8d40701c	-5.9299515e-31
17	0xbf7c9183	-0.98659533
18	0x3f50f2c2	0.8162042
19	0x3e9c1321	0.30483344
20	0x0154418f	3.8985286e-38
21	0x3e0efb67	0.1396309
22	0xbbb3bd08	-0.0054851808
23	0xbf1ab6a8	-0.6043496
24	0x3f273e23	0.6532919
25	0x02bfaaba	2.816292e-37
26	0x3f1400cf	0.57813734
27	0xbda8a491	-0.082345136
28	0x3f0902ee	0.53520095
29	0xbeb2ae73	-0.3489872
30	0x3e400ebd	0.18755622
31	0xbdcd5a6e	-0.10027014
32	0x3e2a1c47	0.1661235
33	0xbebc50ca	-0.36780387
34	0xbe8f474a	-0.27984077
35	0x3c0247b0	0.007951662
36	0x3e442bde	0.19157359
37	0x3d17bff6	0.037048303
38	0xbdc3f794	-0.09568706
39	0x3f7aa2db	0.9790475
40	0xbe91d206	-0.28480548
41	0x3e2072ea	0.15668836
42	0x3da11851	0.07865966
43	0xbe729c07	-0.23692332
44	0xbf191170	-0.5979223
45	0xbe5b9988	-0.21445286
46	0x3e85b78c	0.26116598
47	0xbed76395	-0.42068163
48	0x3e3bb40e	0.18330404
49	0xbeb1d923	-0.34735975
50	0x3e794b9c	0.24345249
51	0xbe5fb093	-0.21844701
52	0xbee6b353	-0.4505869
53	0x3e103fc1	0.1408682
54	0xbef0dab8	-0.4704187
55	0xbdab73db	-0.08371707
56	0x3e5a47b5	0.21316417
57	0x3c960b9d	0.018316085
58	0xbd970e2c	-0.0737575
59	0x3bd04788	0.0063561834

net.7.running_mean f4 [60]
0	0x000f9015	1.42922e-39
1	0xbf3e5bcc	-0.7435882
2	0x3e53e989	0.20694555
3	0x3f39290d	0.72328264
4	0x3ed40da1	0.41416648
5	0x3e84226f	0.2580752
6	0x3caf88f8	0.021427616
7	0x3e02f942	0.12790397
8	0x3ece178e	0.40252346
9	0x3ea784c9	0.32718495
10	0xbede04ea	-0.43363124
11	0xbe8d2a55	-0.2757136
12	0x000205e3	1.85783e-40
13	0xbed6598f	-0.41865203
14	0xbf30670f	-0.68907255
15	0x3e921cbe	0.28537554
16	0x387ae701	5.9819784e-05
17	0xbef036d1	-0.46916822
18	0x3eb76c6b	0.35824904
19	0x3ebbd7f4	0.36688197
20	0x148cec14	1.4229504e-26
21	0x3ead2759	0.33819082
22	0xbe7a5055	-0.24444707
23	0x3bbca942	0.005757482
24	0x3ed93a07	0.42427084
25	0x8007aee3	-7.05586e-40
26	0x3dadf976	0.084948465
27	0x3c4a9010	0.012363449
28	0x3e80faf7	0.2519147
29	0xbf081a80	-0.53165436
30	0xbf0a8d8b	-0.5412223
31	0xbe695cde	-0.22789332
32	0xbd8c36cd	-0.0684639
33	0x3b55c567	0.0032618882
34	0x3e931d84	0.28733456
35	0x80491660	-6.712018e-39
36	0x3ee47674	0.44621623
37	0x3eb0c62b	0.3452619
38	0x3f0f7880	0.56043243
39	0x3c8731ab	0.016503176
40	0x3ebc2704	0.36748517
41	0x3e80653c	0.25077236
42	0x3ebac271	0.36476472
43	0xbea50130	-0.32227468
44	0xbda54bcc	-0.08071098
45	0x3e552e48	0.20818436
46	0x3e865e98	0.26244044
47	0x3d1ee5cf	0.03879338
48	0xbb2f0b36	-0.0026709563
49	0xbd5be9b3	-0.05368967
50	0xbf2b1f1b	-0.6684434
51	0x3fa576df	1.2926902
52	0xbf8be8fb	-1.0930475
53	0xbf1f3b01	-0.6219941
54	0xbdb93095	-0.090424694
55	0x3f6d51b8	0.9270282
56	0x3e2ca006	0.16857919
57	0xbe353f80	-0.17700005
58	0xbd5093ea	-0.05092231
59	0xbed91c8e	-0.42404598

net.7.running_var f4 [60]
0	0x00000004	6e-45
1	0x3f4c6446	0.79840505
2	0x3f548e22	0.8302938
3	0x3f3a26f1	0.7271567
4	0x3f0d4b02	0.5519258
5	0x3f1bd974	0.6087868
6	0x3f58ac53	0.84637946
7	0x3f10fa47	0.5663189
8	0x3f621d4c	0.88325953
9	0x3f8869ad	1.065725
10	0x3f084908	0.53236437
11	0x3ea988ca	0.33112174
12	0x00000004	6e-45
13	0x3eb9c1cb	0.36280665
14	0x3ee67ee2	0.4501868
15	0x3ef64822	0.48101908
16	0x35773e5f	9.210543e-07
17	0x3ef0a076	0.46997422
18	0x3edd3a18	0.43208385
19	0x3f7ec40f	0.9951791
20	0x00000004	6e-45
21	0x3f05f9a3	0.5233404
22	0x3ee27c11	0.4423528
23	0x3ee85c9f	0.45383164
24	0x3f392669	0.72324234
25	0x00000004	6e-45
26	0x3f026c11	0.50946146
27	0x3efa2607	0.48857138
28	0x3f323f84	0.6962817
29	0x3f2f78cd	0.685437
30	0x3ee3883e	0.44439882
31	0x3ee6076d	0.4492754
32	0x3f9807aa	1.1877339
33	0x3ea5b04b	0.32361063
34	0x3f4b1038	0.7932162
35	0x00000004	6e-45
36	0x3f49a6b3	0.7876999
37	0x3f5f6e33	0.87277526
38	0x3f4ec107	0.80763286
39	0x3f2858f3	0.65760726
40	0x3f30f703	0.6912691
41	0x3f23c5a3	0.63973445
42	0x3ef871d4	0.48524344
43	0x3f00ec0e	0.5036019
44	0x3f3f53f5	0.74737483
45	0x3f0cabc7	0.5494961
46	0x3f378b1a	0.7169663
47	0x3f52fe3c	0.8241918
48	0x3f0d63ea	0.5523058
49	0x3f3d74ac	0.7400615
50	0x3eea163f	0.45720097
51	0x3f9dbc7e	1.2323148
52	0x3f12e57f	0.57381433
53	0x3f21b84e	0.6317185
54	0x3f3a0163	0.72658366
55	0x3f242536	0.6411928
56	0x3f788cd2	0.97089875
57	0x3f0db62f	0.55356115
58	0x3eaeb9fd	0.34126273
59	0x3f1a401c	0.60254073

net.9.weight f4 [1, 60]
0	0x398a0af9	0.00026329586
1	0x3eb749b2	0.35798413
2	0xbf40322e	-0.7507657
3	0x3e444f3e	0.19170853
4	0x3e5a8cea	0.21342817
5	0x3e34c2a9	0.17652382
6	0xbe7eb27d	-0.24872775
7	0x3ea4bf2d	0.32177106
8	0x3e8eec83	0.2791482
9	0x3e81349e	0.25235456
10	0x3e361ad4	0.17783672
11	0xbdd42390	-0.103583455
12	0xa1cb4b74	-1.3775787e-18
13	0xbe85caa7	-0.26131174
14	0x3e1324e8	0.14369547
15	0x3e0953bc	0.13410848
16	0x0cbdc29d	2.923719e-31
17	0xbea20389	-0.31643322
18	0x3e6bd5c2	0.23030761
19	0x3e4c3410	0.19941735
20	0x00151fdb	1.939973e-39
21	0x3eab98c7	0.33514997
22	0x3ebe4467	0.37161562
23	0x3e83ca48	0.25740266
24	0x3ea7ad5c	0.3274945
25	0x80c73cce	-1.8297076e-38
26	0x3eb01531	0.34391168
27	0x3e1b04be	0.15138528
28	0x3ea39973	0.3195301
29	0xbee6c8a4	-0.45074952
30	0xbe4e17b6	-0.20126233
31	0x3ea94082	0.33057028
32	0xbeb12411	-0.3459783
33	0x3de925d6	0.1138417
34	0xbe475b15	-0.19468339
35	0xbac2c70f	-0.001486035
36	0x3e79792f	0.24362634
37	0x3f348c8d	0.70526963
38	0xbe966919	-0.29377058
39	0xbea74a1c	-0.32673728
40	0xbe8a6d5c	-0.2703656
41	0xbe35b560	-0.1774497
42	0xbedb5266	-0.42836303
43	0xbe867af6	-0.26265687
44	0xbe4e025d	-0.20118089
45	0x3e0646ab	0.13112895
46	0xbe942344	-0.28933156
47	0xbe61c3ed	-0.22047396
48	0xbe96620e	-0.29371685
49	0x3e96b95b	0.2943829
50	0x3e063e19	0.13109626
51	0xbe81f230	-0.25380087
52	0xbe5d50e5	-0.2161289
53	0x3e502ec1	0.20330335
54	0x3e83171c	0.2560357
55	0xbe7c2855	-0.2462476
56	0xbe4155cb	-0.18880384
57	0xbe3b9066	-0.18316802
58	0x3e1f6221	0.15564777
59	0xbea90b71	-0.33016542
